{RESULTS_FOLDER}sequence_model.pth (torch, 245889 bytes, 13 tensors)

conv1.weight f4 [16, 3, 3, 3]
0	0xbfd4be26	-1.6620529
1	0xbf087483	-0.5330278
2	0x3d88fb58	0.06688565
3	0x3e9c42f5	0.30519834
4	0x3ffa2445	1.9542319
5	0x40095afb	2.146178
6	0xbf819f69	-1.0126773
7	0xbf562380	-0.8364792
8	0xbce77610	-0.028254539
9	0x3f91f744	1.1403584
10	0x3f231272	0.6370002
11	0x3e963907	0.29340383
12	0xbde3dd81	-0.11126233
13	0xbff57f63	-1.91795
14	0xc00f1011	-2.2353556
15	0xbeb15563	-0.34635457
16	0xbe082de7	-0.1329876
17	0xbe965c7e	-0.2936744
18	0xc006a423	-2.103768
19	0xbfd1df62	-1.6396296
20	0xbfd595c9	-1.6686336
21	0xbf739902	-0.95155346
22	0xbd684c76	-0.056713544
23	0xbe6bccbf	-0.23027323
24	0xc013a9c6	-2.3072371
25	0x3e3bca95	0.18338998
26	0xbceb7c5d	-0.028745824
27	0x3e94d7d0	0.29070902
28	0x3fd77e2e	1.6835382
29	0x3f82ad95	1.0209223
30	0xc03f9a09	-2.9937766
31	0xbf162e6c	-0.58664584
32	0x3f6efb29	0.9335199
33	0x3f2943b7	0.6611895
34	0xbf951acf	-1.1648806
35	0x3f0ff849	0.5623823
36	0xbfccc95c	-1.599895
37	0xbfc2e2e8	-1.5225496
38	0xbf690dc0	-0.91036606
39	0x3fd2cca5	1.6468703
40	0x3f6c9fa1	0.92431074
41	0xbf8fa77b	-1.1222986
42	0xbf162ba8	-0.58660364
43	0xbf47aea9	-0.78000885
44	0xbf8059bc	-1.0027385
45	0xbd48a7e7	-0.04898825
46	0xbf706b91	-0.93914133
47	0xbf7d772d	-0.9900997
48	0xbfc08ddb	-1.5043291
49	0xbe951da2	-0.2912417
50	0x3f2dc5a1	0.6787968
51	0xbfa70b0f	-1.305025
52	0xbfd2f26a	-1.6480229
53	0xbf42b847	-0.76062435
54	0xbf806d54	-1.0033364
55	0x3f6b6f81	0.91967016
56	0x3e402eb9	0.18767823
57	0xbe4e8d37	-0.20171057
58	0x3f759e05	0.95944244
59	0xbf83d1b2	-1.0298369
60	0x3f395fed	0.72411996
61	0xbf219ad2	-0.6312686
62	0xbf02d33e	-0.5110358
63	0x3b52b6dc	0.003215245
64	0x3f94aa03	1.1614383
65	0xbfa81939	-1.3132697
66	0xbf040a39	-0.515781
67	0x3f32dfe2	0.6987287
68	0x3c967d8d	0.018370414
69	0xbf5e8b40	-0.8693123
70	0x3ed56e78	0.41685843
71	0xbf3bc58d	-0.73348314
72	0xbf254b24	-0.6456778
73	0xbf3ae83f	-0.7301063
74	0x3f15a760	0.5845852
75	0x3e9dddd1	0.30833295
76	0xbf64fde1	-0.8944989
77	0x3da4c3a9	0.08045132
78	0xbf969681	-1.176468
79	0xbff1a6c5	-1.8879019
80	0xbf09fbd2	-0.5389987
81	0xbed9925b	-0.42494473
82	0xbfde350a	-1.7359936
83	0xbfdcf9f2	-1.7263777
84	0xbb38af93	-0.0028180822
85	0xbf2ef5c8	-0.6834378
86	0x3eb72c2b	0.35775885
87	0x3fcb7c24	1.589726
88	0xbf26477e	-0.6495284
89	0xbf08f14d	-0.53493196
90	0xbea45f89	-0.32104138
91	0xbd71b7c2	-0.059013136
92	0x3f8d2d5c	1.1029468
93	0xbfd2b2e9	-1.6460849
94	0xbfb63a19	-1.423648
95	0x3e812861	0.2522612
96	0xbf5be1cc	-0.85891414
97	0xbf41955a	-0.7561852
98	0xbfabc002	-1.3417971
99	0x3eb661c7	0.35621473
100	0x3bdbd4e5	0.0067087286
101	0xbf108958	-0.5645957
102	0x3f3f1ff5	0.7465814
103	0xbf05ce7e	-0.5226821
104	0x3e8986e5	0.2686073
105	0xbf5422ad	-0.8286541
106	0xbf2951c0	-0.66140366
107	0xbf92fcae	-1.1483362
108	0xbd2ce2f7	-0.042208638
109	0xbf0c9e16	-0.5492872
110	0x3ef2de71	0.47435334
111	0x3ee49aa4	0.4464923
112	0xbf731250	-0.9494982
113	0xbee7f58f	-0.45304534
114	0xbf66e498	-0.90192556
115	0x3e91ceb3	0.2847801
116	0x3f73265d	0.9498041
117	0x3f3d2acd	0.73893434
118	0xbf2cfa12	-0.67569077
119	0xbf841c4a	-1.0321133
120	0xbe8ed322	-0.27895457
121	0x3e9aa07c	0.30200565
122	0xbf692049	-0.9106489
123	0xbed71cee	-0.4201426
124	0xbf017e98	-0.5058379
125	0x3f68d043	0.9094278
126	0xbf689154	-0.90846753
127	0x3f58e9ca	0.84731734
128	0xbca27690	-0.019831926
129	0xbf00629b	-0.5015046
130	0xbf206cc2	-0.6266595
131	0xbf0433b3	-0.51641387
132	0xbd7a654e	-0.061131768
133	0xbf148910	-0.5802164
134	0x3e8d59cd	0.27607575
135	0xbf00bd2e	-0.50288665
136	0x3f992a08	1.1965952
137	0x3f1db459	0.61603314
138	0xbe8a20fc	-0.2697829
139	0xbea582e0	-0.32326412
140	0xbea32204	-0.3186189
141	0x3f174cb9	0.59101444
142	0xbeade84e	-0.33966297
143	0xbe9fa931	-0.3118377
144	0xbf24046d	-0.64069253
145	0x3f13be23	0.57712
146	0x3f23e78b	0.6402518
147	0x3c0a605c	0.008445825
148	0x3f1e6a7f	0.6188125
149	0xbd123839	-0.03569815
150	0x3f280c6b	0.6564395
151	0xbf6afd78	-0.9179301
152	0xbed5d086	-0.41760653
153	0xbf0bb978	-0.5457988
154	0x3d06cf98	0.03291282
155	0xbc7cd128	-0.015430726
156	0xbf3effb6	-0.74608934
157	0x3f24c050	0.64355946
158	0x3d504c7b	0.050854187
159	0xbefdbdcf	-0.49558875
160	0xbeefc917	-0.46833107
161	0xbef60520	-0.48050785
162	0xbf8066d5	-1.0031382
163	0xbff2109b	-1.8911318
164	0x3f7a9a24	0.9789145
165	0x3f5a3faf	0.85253423
166	0xbea8cd94	-0.32969344
167	0xbf45acc9	-0.77216774
168	0x3f847fe5	1.035153
169	0xbf9646ad	-1.1740319
170	0xbf6f07c6	-0.93371236
171	0xbfa364d6	-1.2765148
172	0x3f6fc2fc	0.936569
173	0xbf8c1315	-1.0943323
174	0xbfb86225	-1.4404951
175	0xbf91d59e	-1.1393316
176	0xbe6ae841	-0.2294016
177	0xbfcebcbc	-1.6151347
178	0xbe1f556b	-0.15559928
179	0x3f3ee87b	0.7457349
180	0xbf99c4f2	-1.2013228
181	0x3f47018b	0.7773673
182	0xbf35b153	-0.709737
183	0xbfff8589	-1.9962627
184	0x3f1e5457	0.6184744
185	0xbda44ff7	-0.080230646
186	0xbf1ffa7d	-0.6249159
187	0xbf1a7d5c	-0.60347533
188	0x3f0dc265	0.5537475
189	0xbef2222c	-0.47291696
190	0xbee3b4ce	-0.4447388
191	0xbfb3136b	-1.3990301
192	0xbf5aeb50	-0.8551531
193	0xbfa6e807	-1.3039559
194	0x3f2cfa75	0.6756967
195	0xbfad6d7b	-1.3549036
196	0xbfaadba8	-1.3348284
197	0xbfa5d006	-1.2954109
198	0xbee57cf3	-0.4482189
199	0x3d965b88	0.07341677
200	0xbf758ee3	-0.9592115
201	0x3f16bf93	0.5888607
202	0x3efbe9e2	0.49201876
203	0x3fa06d2b	1.2533315
204	0xbf489363	-0.78349894
205	0x3df5aea0	0.11996198
206	0xbf46acc3	-0.77607363
207	0xbe9e6af8	-0.30940986
208	0xbf5e0acd	-0.8673523
209	0xbf7767f2	-0.9664298
210	0xbf284731	-0.6573363
211	0xbf5c1a18	-0.85977316
212	0x3dec06e7	0.11524754
213	0xbf98ca46	-1.1936729
214	0xbf3ea0da	-0.7446419
215	0xbf6ddfa1	-0.92919356
216	0xbf07cc8b	-0.5304648
217	0xbe00220b	-0.12512986
218	0x3f8666c3	1.050011
219	0xbd22f45b	-0.039783817
220	0x3e9d0742	0.306696
221	0x3e2d934d	0.16950722
222	0x3f7e380d	0.99304277
223	0xbf0bddba	-0.546352
224	0xbeb2a342	-0.3489018
225	0xbf34d298	-0.7063384
226	0xbf28b417	-0.65899795
227	0xbf1e581c	-0.61853194
228	0x3e1eb0d4	0.15497142
229	0xbe33d98b	-0.17563455
230	0xbeed98c4	-0.46405613
231	0x3f8998e5	1.0749785
232	0x3f095ed9	0.5366035
233	0xbf0aa2fa	-0.5415493
234	0xbe89668a	-0.26836044
235	0x3d93a147	0.072084956
236	0x3f00b18a	0.50270903
237	0xbf12004f	-0.5703172
238	0xbec40a58	-0.38289142
239	0x3f7c0112	0.98439133
240	0xbe20d299	-0.15705337
241	0xbe9c9a19	-0.30586317
242	0xbe3bb74e	-0.18331644
243	0xbea86e52	-0.32896668
244	0x3ec4ae3c	0.3841418
245	0xbfb64115	-1.4238611
246	0xbd1ce6c7	-0.038306024
247	0x3e82f716	0.25579137
248	0xbed68a13	-0.41902217
249	0xbfc7c5a8	-1.5607195
250	0x3ef3faa5	0.47652164
251	0xbee6eed6	-0.45104092
252	0x3f05973b	0.52183884
253	0xbec41294	-0.38295424
254	0xbef136fc	-0.47112262
255	0xbf5df76a	-0.8670565

conv1.bias f4 [16]
0	0xbea124cd	-0.3147339
1	0xbe65f2f8	-0.22455966
2	0xbf3be5ac	-0.73397326
3	0xbf4277d4	-0.75964093
4	0xbf20143e	-0.6253089
5	0xbf450b9d	-0.76970845
6	0xbe7a6312	-0.24451855
7	0xbe077acc	-0.13230437
8	0xbf3bbeac	-0.7333782
9	0xbedc57ac	-0.43035638
10	0xbf2fd109	-0.6867834
11	0xbee78e15	-0.45225587
12	0xbf8245ea	-1.0177586
13	0xbea6de28	-0.32591367
14	0xbd6eba7f	-0.058283325
15	0xbf4921ea	-0.78567374

conv2.weight f4 [4, 16, 3, 3]
0	0xbf3e53f2	-0.7434684
1	0x3e110b74	0.14164525
2	0xbf38a8c6	-0.7213253
3	0x3f8ed4ae	1.1158655
4	0x4002ccbb	2.0437458
5	0xbfb285a6	-1.3947036
6	0xbda7bf2e	-0.081907615
7	0xbf418251	-0.7558947
8	0xbf809a1c	-1.004703
9	0xbf37c466	-0.71784055
10	0xbfb242ce	-1.3926637
11	0xbf908db2	-1.1293242
12	0xbd9a808f	-0.07544052
13	0x3f2d2d61	0.6764737
14	0xbf307c6e	-0.68939865
15	0xbee09a74	-0.43867838
16	0x3f9ebd4d	1.240152
17	0x3ea8f80b	0.33001742
18	0xbf0c8dda	-0.5490395
19	0xbe2a40fb	-0.1662635
20	0x3d99cec3	0.0751014
21	0xbeb9aa7c	-0.36262882
22	0x3e061859	0.13095225
23	0xbeab9fb8	-0.33520293
24	0xbfb75921	-1.4324075
25	0xbe87a29b	-0.26491246
26	0xbf798d53	-0.9748127
27	0xbf7f265f	-0.99667925
28	0xbdb5657a	-0.08857246
29	0xbc8e9ec7	-0.017409695
30	0xbd931c13	-0.07183089
31	0xbe2c44a3	-0.16823058
32	0x3f3d43ed	0.7393177
33	0xbfb0b46d	-1.3805062
34	0x3e8d6c43	0.2762166
35	0x3fd0d2a1	1.6314279
36	0x3d925550	0.07145178
37	0xbf2a8f12	-0.6662456
38	0xbfdd4140	-1.7285538
39	0xbf43fc89	-0.76557213
40	0x3ed947f2	0.42437702
41	0x3d98f1c8	0.07467991
42	0xbd8cf6f6	-0.068830416
43	0xbf488a87	-0.78336376
44	0xbf5d6d82	-0.8649522
45	0x3e9a2067	0.30102846
46	0xbf2527e8	-0.6451402
47	0xbe808ae1	-0.25105956
48	0xbfe7ce86	-1.8109901
49	0xbeb205fd	-0.34770194
50	0xbfafffa9	-1.3749896
51	0xbe9aaa77	-0.3020818
52	0xbeb091a2	-0.3448611
53	0x3e9547ad	0.29156247
54	0x3e14dbc0	0.14536953
55	0xbe329947	-0.17441283
56	0xbee87370	-0.45400572
57	0xbeaa3710	-0.33245134
58	0x3e82f0cf	0.25574347
59	0x3f126dba	0.5719868
60	0xbf1b970a	-0.6077734
61	0xbdeb1c1a	-0.11479969
62	0x3deeb32e	0.116552696
63	0x3f44c928	0.7686944
64	0x3e3726db	0.17885916
65	0x3f9849ca	1.1897519
66	0x3f5e0e8a	0.86740935
67	0x3f74e2e5	0.95658714
68	0x3f4ae432	0.7925445
69	0x3e1d181b	0.15341227
70	0x3f35deb2	0.7104293
71	0x3f3a8e43	0.72873324
72	0xbf4d2c4d	-0.8014572
73	0xbeb453e7	-0.35220262
74	0xbfb1d400	-1.3892822
75	0x3e91cf9d	0.2847871
76	0x3d96abf1	0.07357014
77	0xbde3365e	-0.11094354
78	0xbecf3793	-0.40472087
79	0x3f0b1b87	0.5433888
80	0xbf1e50ef	-0.61842245
81	0x3dd92e32	0.10604514
82	0x3ee88697	0.45415184
83	0xc026550c	-2.5989408
84	0x3f611750	0.879262
85	0x3d8a72bc	0.06760165
86	0x3f5564aa	0.83356726
87	0x3dfd68ca	0.123735026
88	0x3f0ccdc7	0.5500149
89	0xbf4ccf6d	-0.80004007
90	0xbf45d08d	-0.7727135
91	0xbebb5760	-0.365901
92	0xbfc36571	-1.5265332
93	0xbf93ecb0	-1.1556606
94	0xbe80cf34	-0.25158083
95	0x3f36d423	0.71417445
96	0xbedbc2a6	-0.42921942
97	0x3e861933	0.261911
98	0x3f66c823	0.90149134
99	0xbe8afd79	-0.2714651
100	0xbf65360f	-0.8953561
101	0xbf75d5a8	-0.9602914
102	0xbf87fbc3	-1.0623707
103	0x3ed8330f	0.42226455
104	0xbf125edd	-0.57176
105	0xbf0c18b7	-0.5472521
106	0x3db053fc	0.08609769
107	0xbfda0202	-1.7031863
108	0xbeda8e67	-0.4268677
109	0x3e24c926	0.16092357
110	0xbf02e8b5	-0.5113633
111	0x3f27e34f	0.6558122
112	0x3f02b430	0.51056194
113	0x3e788f63	0.24273448
114	0x3d8a7ada	0.06761713
115	0xbeda8c8e	-0.4268536
116	0xbff644aa	-1.9239705
117	0xbdc8d10b	-0.09805497
118	0xbf9cbdf4	-1.2245469
119	0xbe101abd	-0.140727
120	0x3e2496d1	0.16073157
121	0x3f962eb4	1.1733003
122	0xbe487afe	-0.19578168
123	0xbec0ecd5	-0.37680689
124	0x3f84d58d	1.037767
125	0xbfaa9c53	-1.3328956
126	0xbe2525a0	-0.16127634
127	0xbf564431	-0.836978
128	0x3df2189d	0.11821101
129	0x3f53b0ae	0.82691467
130	0x3fb82830	1.4387264
131	0xbf13bc94	-0.5770962
132	0xbfb0227f	-1.3760527
133	0x3f83f21d	1.0308262
134	0xbfc96b00	-1.5735779
135	0xbe88843b	-0.26663384
136	0x3ea10f5b	0.31457028
137	0xbea67bea	-0.32516414
138	0xbdb1280c	-0.086502165
139	0x3e3c3731	0.18380429
140	0x3e022f54	0.12713367
141	0x3e6c27f0	0.2306211
142	0xbe03015c	-0.12793487
143	0xbee9911e	-0.45618528
144	0xbe6050c4	-0.2190581
145	0xbe6e131d	-0.23249479
146	0xbfe349a6	-1.7756851
147	0xbdf285d1	-0.1184193
148	0x3e768c1a	0.24076882
149	0xc021f70f	-2.5307043
150	0xbece5f2f	-0.40306994
151	0xbf89e7c4	-1.0773854
152	0xbfdbbfbd	-1.7167889
153	0xbe404b32	-0.18778685
154	0x3e2bf423	0.1679235
155	0xbfef9f42	-1.8720477
156	0x3ea85400	0.32876587
157	0xbefea741	-0.4973698
158	0xc0057a05	-2.0855725
159	0xbf0f0de9	-0.558806
160	0xbe89685b	-0.2683743
161	0xbf8f2d3f	-1.1185683
162	0xbf97177f	-1.1804045
163	0xbf19f764	-0.60143113
164	0xbd2c999e	-0.04213869
165	0x3f700a9b	0.9376618
166	0xbf86f276	-1.0542743
167	0x3eb043aa	0.34426624
168	0x3f1899bc	0.5960958
169	0xbdab62e3	-0.083684705
170	0xbfc272bb	-1.5191263
171	0xbf117ab4	-0.56827855
172	0x3f62e33c	0.8862798
173	0xbfa1064a	-1.2580044
174	0xbee0d3df	-0.43911645
175	0xbf00094e	-0.500142
176	0x3f5a4ae5	0.8527053
177	0xbf5b5bdc	-0.8568704
178	0xbf58e80c	-0.84729075
179	0xbe970022	-0.2949229
180	0xbf5b2cc3	-0.85615176
181	0xbf87d16a	-1.0610783
182	0x3e8e822a	0.27833682
183	0x3ccd8fa0	0.0250929
184	0xbd308068	-0.043091208
185	0xbf76d71c	-0.9642198
186	0x3d98c489	0.07459361
187	0xbd95777f	-0.07298183
188	0xbf021f61	-0.5082913
189	0xbfed699c	-1.8547854
190	0xbfb45930	-1.4089718
191	0xbd6642a8	-0.056215912
192	0x3f6b25c4	0.918545
193	0xbf0408eb	-0.5157611
194	0xbf8a7e64	-1.0819821
195	0x3f4c4dc1	0.79806143
196	0x3e0e4241	0.13892461
197	0x3f4e62cd	0.8061951
198	0xbf1448ef	-0.5792379
199	0x3e831fd3	0.25610217
200	0xbdbfb6de	-0.09361051
201	0xbf964eee	-1.1742837
202	0xbe7b2aa8	-0.24527991
203	0xbf3a22ac	-0.72709155
204	0xbfb24511	-1.3927327
205	0xbede218c	-0.4338497
206	0xbf852982	-1.0403292
207	0xbf3eff6c	-0.7460849
208	0xbe9c7877	-0.30560657
209	0xbf1df2e3	-0.6169874
210	0xbf178a4b	-0.59195393
211	0xbea7fa80	-0.32808304
212	0xbfb5afc6	-1.4194267
213	0xbf9479f4	-1.1599717
214	0xbf34da69	-0.7064577
215	0xbee4c4d9	-0.44681433
216	0xbf606528	-0.8765435
217	0xbf07cebc	-0.53049827
218	0xbed7aa57	-0.42122146
219	0x3fac1678	1.3444357
220	0xbf24a284	-0.6431048
221	0xbf53a0d3	-0.82667273
222	0xbee03366	-0.43789214
223	0xbe98f013	-0.29870662
224	0x3dd7a5a4	0.1052964
225	0xbf612762	-0.8795072
226	0xbf2c9bb1	-0.67425066
227	0xbe8cf18b	-0.27528033
228	0xbfb47782	-1.4098971
229	0xbf41f7b6	-0.757686
230	0xbf2045da	-0.62606585
231	0xbe266216	-0.16248354
232	0xbf041aaa	-0.51603186
233	0xbf982f28	-1.1889391
234	0xbee5ef72	-0.44909245
235	0xbe32aa78	-0.17447841
236	0xbfaa35c2	-1.3297656
237	0x3f80e1ef	1.006895
238	0x3e09965b	0.13436262
239	0xbfa4b2c3	-1.2867054
240	0xbf12891a	-0.5724045
241	0x3e8245d7	0.2544391
242	0x3e94721d	0.28993312
243	0xc008a782	-2.1352239
244	0xbf3b7210	-0.7322092
245	0xbebefc2c	-0.37301767
246	0xbed38c86	-0.41318148
247	0xbe525d4c	-0.20543402
248	0xbf5b7af6	-0.857345
249	0xbf1e29ff	-0.6178283
250	0x3e6bd63f	0.23030947
251	0x3e931c3f	0.28732488
252	0xbe2cb6b3	-0.16866569
253	0xbf6e987a	-0.9320141
254	0x3f2ac415	0.6670545
255	0x3f8b1a81	1.0867463

conv2.bias f4 [4]
0	0xbeccf6ec	-0.40032136
1	0xbed47bb9	-0.41500643
2	0xbf147875	-0.579963
3	0xbf116e1d	-0.56808645

lstm.weight_ih_l0 f4 [256, 36]
0	0xbe9af3ab	-0.3026403
1	0x3f0ee677	0.5582041
2	0xbfa0509d	-1.2524601
3	0xc018db6e	-2.388393
4	0xbee95405	-0.45571914
5	0x3f24454b	0.6416823
6	0xbfb64ac4	-1.4241567
7	0xbf3b8864	-0.7325499
8	0xbed5b530	-0.41739798
9	0xbfdd79fe	-1.7302854
10	0xbe80a462	-0.25125414
11	0xbe4955b7	-0.19661604
12	0xbfb2f130	-1.3979855
13	0x3e10273b	0.14077465
14	0x3fe35cca	1.7762692
15	0xbf30dc40	-0.69086075
16	0xbfc20b24	-1.515965
17	0x3e1ecdd0	0.15508199
18	0xbf187ee5	-0.59568626
19	0x3e3d361b	0.18477671
20	0x3f438d01	0.7638703
21	0x3f946b53	1.1595253
22	0x400e0d30	2.219555
23	0x3ff79c98	1.9344664
24	0xbc45a54e	-0.0120633375
25	0x3f73d640	0.95248795
26	0x3fd2aa78	1.6458273
27	0xc006c17f	-2.10556
28	0xbd391a18	-0.0451909
29	0x3f6e0526	0.92976606
30	0x3fada0bd	1.3564678
31	0xbf8210d0	-1.0161381
32	0x3fd34c2c	1.6507621
33	0xbf90b233	-1.1304382
34	0xbe6b3be7	-0.2297207
35	0xbf85e0cf	-1.0459231
36	0xbe11571a	-0.14193383
37	0xbf172aa4	-0.5904944
38	0x3f88b3de	1.0679891
39	0x3e85d5ab	0.26139578
40	0x3e46acc1	0.19401838
41	0xbf884c41	-1.0648271
42	0xbfe69296	-1.8013484
43	0x3f21970c	0.63121104
44	0x3da023d6	0.07819335
45	0x3f5d181b	0.8636491
46	0x3f153533	0.582843
47	0x3f839b61	1.0281793
48	0x3ece8d0d	0.40341988
49	0x3e98613f	0.29761693
50	0x3e98cd74	0.29844248
51	0xbe80326c	-0.2503847
52	0xbf920357	-1.1407269
53	0xbe6cd0ca	-0.23126522
54	0x3f361740	0.71129227
55	0x3e4dcf78	0.20098674
56	0x3fdafa8d	1.7107712
57	0xbf57965d	-0.8421381
58	0x3fda42b7	1.705161
59	0x3e784551	0.24245192
60	0xbf944c44	-1.1585774
61	0xbedccab4	-0.431234
62	0x3f4a9158	0.79128027
63	0x40631230	3.547985
64	0x3fdfbdd6	1.7479808
65	0x3feca853	1.8488868
66	0xbf16d315	-0.58915836
67	0x3ff3eb0e	1.9056108
68	0xbf75e19a	-0.96047366
69	0xbff57b4c	-1.9178252
70	0xbeb624ea	-0.35575038
71	0x3e697bc9	0.22801127
72	0x3ead6f0d	0.33873788
73	0xbfb37dc6	-1.4022758
74	0x3fd13276	1.6343524
75	0xbf5ba191	-0.85793406
76	0xbe9d041b	-0.30667195
77	0xbd0aef3e	-0.033919565
78	0xbf702d78	-0.9381938
79	0x3e858581	0.26078418
80	0x3ff9f887	1.952897
81	0x3ea7c86c	0.32770097
82	0x3ebbdbb9	0.36691073
83	0x3f667945	0.9002879
84	0xbfb575c6	-1.4176567
85	0x3f4c1074	0.79712605
86	0x3ebd9fa7	0.37035868
87	0xbdc23336	-0.09482424
88	0x3f664dd9	0.89962536
89	0xbdccbcae	-0.09996925
90	0x3f356e10	0.7087107
91	0x3ef18b1b	0.47176442
92	0x3f847497	1.034808
93	0x3ee90441	0.45511058
94	0x3fd099a2	1.6296885
95	0x3f220b5e	0.63298595
96	0x3ea1c799	0.31597593
97	0x3f4b70b0	0.7946882
98	0x3c7f198f	0.0155700585
99	0x40b74d37	5.7281756
100	0x400c65a5	2.193704
101	0x3ecd6bdb	0.4012135
102	0xbfbf7935	-1.4958864
103	0x3e61b599	0.2204193
104	0xbfa82696	-1.3136775
105	0xbecba458	-0.39773822
106	0xbde92876	-0.113846704
107	0x3e0cfe7f	0.13768958
108	0xbf7a6984	-0.97817254
109	0x3f38359b	0.71956795
110	0x3dcb7491	0.09934343
111	0xbfe7ceca	-1.8109982
112	0xbf0fbe09	-0.56149346
113	0xbe1c4adc	-0.15262932
114	0xbf8b30c6	-1.087426
115	0xbee1dfb7	-0.44115993
116	0xbfc32039	-1.5244209
117	0xbf984f47	-1.1899194
118	0xbf2650f0	-0.6496725
119	0x3fa0ac4f	1.2552584
120	0xbffe388f	-1.986101
121	0x3f05d2e7	0.52274936
122	0xbefc6e06	-0.4930269
123	0xbf10be89	-0.56540734
124	0x3f66f000	0.9020996
125	0xbf12ddc5	-0.57369643
126	0xbf4b91e7	-0.79519504
127	0x3fe2b551	1.7711583
128	0x3fb702d3	1.4297737
129	0x3fcaae15	1.5834376
130	0xbf7686df	-0.96299547
131	0x3d1ae20d	0.037813235
132	0xbe585139	-0.21124734
133	0xbe9b50a2	-0.30334955
134	0x3fe4325e	1.7827871
135	0x3fd12032	1.633795
136	0xbf13a1a8	-0.5766854
137	0x3d92ec1b	0.0717394
138	0x3fdbd3a3	1.7173961
139	0xbfc73773	-1.5563797
140	0x3dde1251	0.10843337
141	0x3decb6b1	0.11558283
142	0xbf94301d	-1.1577183
143	0x3fa2b7c0	1.2712326
144	0xbf2dc36c	-0.67876315
145	0x3fcfe471	1.624159
146	0xc01cef51	-2.4521067
147	0xbfac54bf	-1.3463362
148	0x3e467743	0.19381432
149	0x3e294ee9	0.16534008
150	0xbfa0319c	-1.251514
151	0xbf8e28b0	-1.1106167
152	0xc01fd5f8	-2.4974346
153	0xbda403bc	-0.08008525
154	0x3eda1f60	0.42602062
155	0xbe1ce9c3	-0.15323548
156	0xbf185b20	-0.59514046
157	0xbe97d915	-0.29657808
158	0x3f0d2d3c	0.5514715
159	0xbfa09e83	-1.2548374
160	0x3f06c2ed	0.52641183
161	0xbf2bd5b4	-0.6712296
162	0xbf29bdd3	-0.66305274
163	0x3f7d55e3	0.9895918
164	0x3f3bcff2	0.73364174
165	0x3fdbbc37	1.7166814
166	0x3fd0b089	1.6303874
167	0x3f6a5bde	0.9154643
168	0x3f5ad425	0.85479957
169	0x3c8c53f7	0.017129881
170	0x3fef7a97	1.8709286
171	0xc012a688	-2.2914143
172	0xbeaa4cb3	-0.33261642
173	0x3dd7b55b	0.10532638
174	0x3fc5893e	1.5432508
175	0x3e4a9198	0.19782102
176	0x3f65dc1a	0.89788973
177	0x3ed6e4f0	0.4197154
178	0x3e056c3f	0.13029574
179	0xbd2c1de6	-0.0420207
180	0x3d7bef63	0.061507594
181	0x3f2e50c1	0.6809197
182	0xc0013998	-2.0191402
183	0xbe8608dc	-0.26178634
184	0x3e9c3747	0.30510923
185	0x3e65376f	0.22384427
186	0xbdb89275	-0.090123095
187	0xc022e885	-2.5454419
188	0xbfab0350	-1.3360386
189	0x3e9045eb	0.28178343
190	0xbe1cb403	-0.15303044
191	0x3faf77f7	1.3708485
192	0xbf0378e8	-0.51356363
193	0xbedd8924	-0.43268692
194	0x3f24dc20	0.64398384
195	0xbf528c26	-0.822451
196	0xbfa67394	-1.3004022
197	0x3fb9ee01	1.4525758
198	0xbde30235	-0.11084405
199	0xbe1710a9	-0.14752449
200	0x3fd46485	1.6593176
201	0x3f87549d	1.0572697
202	0xbf4207b9	-0.75793034
203	0x3fd105d0	1.6329899
204	0xbe88f350	-0.26748133
205	0x3e86c9d2	0.26325852
206	0x40360fb6	2.844709
207	0x3f822d44	1.0170064
208	0x3ebd5ede	0.3698644
209	0x4077c150	3.8711739
210	0x3ee798fe	0.4523391
211	0xbff5dfdf	-1.9208945
212	0x3fc341f1	1.5254499
213	0xbff82eff	-1.9389342
214	0xbdb9dc9f	-0.09075283
215	0xbecefbc3	-0.40426454
216	0x3e795ed7	0.24352585
217	0x3d559abc	0.05214952
218	0xbf263dd1	-0.64938074
219	0xbebd37d0	-0.36956644
220	0x3eb45ff4	0.35229456
221	0xbeee5b31	-0.4655395
222	0x3f780bb5	0.96892864
223	0xbf0f9ffe	-0.56103504
224	0x3ec3ee12	0.3826757
225	0xbe416e29	-0.18889679
226	0xbf05d7e0	-0.52282524
227	0xbee1d27d	-0.44105902
228	0x3cef84f3	0.0292382
229	0xbdba6e58	-0.09103078
230	0xbe802983	-0.2503167
231	0xbe160844	-0.1465159
232	0x3fa8ebaf	1.3196925
233	0xbebb82da	-0.3662327
234	0x3b05a7d7	0.002039423
235	0xbe90c374	-0.2827412
236	0xbf403587	-0.75081676
237	0x3e541cfd	0.20714183
238	0xbf9154b8	-1.1353979
239	0xbf183bb8	-0.59466124
240	0x3ef9fbd3	0.4882494
241	0xbf8d35bd	-1.1032025
242	0xbde28203	-0.11059954
243	0xbe4223c5	-0.18958957
244	0x3e141842	0.14462379
245	0xbdb19dee	-0.08672701
246	0x3f9ef7d4	1.2419381
247	0x3ff37034	1.9018617
248	0xbfbc4ced	-1.4710976
249	0x3f883456	1.0640972
250	0xbbec815a	-0.0072175683
251	0xbee98c4a	-0.45614845
252	0xbe2464cb	-0.16054074
253	0xbf66ee10	-0.90207005
254	0xbf6d3dc5	-0.9267238
255	0xbe2ab277	-0.16669641

lstm.weight_hh_l0 f4 [256, 64]
0	0xbe88364c	-0.26603925
1	0x4000e67c	2.0140676
2	0x3ffeb7ae	1.9899805
3	0x3f9941de	1.1973226
4	0x3f086b03	0.53288287
5	0xbfa5b00a	-1.2944348
6	0xbeb2d04c	-0.34924543
7	0xc00bf968	-2.1870975
8	0xbd397e95	-0.045286734
9	0xbfc9ff39	-1.5781013
10	0xbe27a074	-0.16369802
11	0xbe5a4b54	-0.21317798
12	0x3b6425d6	0.003481259
13	0x3f05525e	0.5207881
14	0x3fa1a83c	1.2629466
15	0x3fcdd3e3	1.6080288
16	0xbf1b9520	-0.6077442
17	0xbe2fd4c6	-0.1717101
18	0x3e82b679	0.2552984
19	0x3dd75951	0.10515083
20	0xbf048811	-0.5177012
21	0x3fa3c453	1.2794288
22	0x3d5efac4	0.054438367
23	0x3de0dffc	0.10980222
24	0x3f4a8ad6	0.79118097
25	0x3f4c9ed2	0.7992984
26	0x3ef0f18e	0.47059292
27	0x3f5b0665	0.8555663
28	0x4007ffd3	2.1249893
29	0xbd7c201b	-0.061554056
30	0xbfe33a4b	-1.7752165
31	0xbf62e8ab	-0.88636273
32	0x405de5e6	3.467157
33	0xbfce40f5	-1.6113573
34	0xbe18631c	-0.14881557
35	0x3ebfc660	0.37456036
36	0xbfbf6705	-1.4953314
37	0xbe90ac91	-0.28256658
38	0xbf1782ec	-0.59184146
39	0xbf8d8816	-1.1057155
40	0xbf639ae1	-0.889082
41	0x3ea2cc81	0.3179665
42	0x3eb39f12	0.350823
43	0x402c0695	2.6879017
44	0xbd22bc0d	-0.03973012
45	0xbf52908e	-0.8225182
46	0x3cd7998a	0.02631833
47	0x3ecadcb2	0.39621502
48	0xbf6ca1ef	-0.9243459
49	0x3f9464a9	1.1593219
50	0x3f3e6b6f	0.7438268
51	0xbf173f52	-0.59080994
52	0xbfff3d30	-1.9940548
53	0xbe6ee1aa	-0.23328272
54	0x3de1fbf4	0.11034384
55	0x4026584a	2.5991387
56	0xbef7cf05	-0.4840013
57	0x3da3652a	0.0797828
58	0x3e63f37d	0.22260852
59	0x3f641650	0.89096546
60	0xbcec3cd8	-0.028837606
61	0xbf9cfd4e	-1.2264802
62	0x3ddb2db6	0.10702078
63	0xbf2b2b49	-0.6686292
64	0x3e376974	0.17911321
65	0xbeef711a	-0.46765977
66	0xc018a1e4	-2.384881
67	0xbe036520	-0.12831545
68	0xbf5bea5f	-0.85904497
69	0x404c389f	3.1909559
70	0x3f599111	0.8498698
71	0x3f30186d	0.6878727
72	0x3f1c1c5b	0.60980767
73	0x3f2f62d8	0.685102
74	0xbf02aaae	-0.51041687
75	0x3f05e940	0.52309036
76	0x3f6559d9	0.8959022
77	0xbe8d1fdc	-0.2756337
78	0xbe4fc16a	-0.20288625
79	0x3ed17a54	0.4091364
80	0xbea3017b	-0.31837067
81	0xbf3ba960	-0.7330532
82	0xbf37310f	-0.7155923
83	0x3f23fd7d	0.6405867
84	0xbfc60b35	-1.547217
85	0xbf8c113c	-1.094276
86	0x3f8c0c29	1.0941211
87	0x3f91bc97	1.1385678
88	0xbf069d1e	-0.5258349
89	0x3fbb9d11	1.4657308
90	0x3e92de07	0.28685018
91	0x3fcd9da7	1.6063737
92	0xbeabbc59	-0.33542135
93	0xbea81799	-0.32830504
94	0x3ede5793	0.4342619
95	0xbf4b153b	-0.7932927
96	0xc0384d63	-2.8797233
97	0xbe6954c7	-0.22786246
98	0xbf4bea15	-0.79654056
99	0x3ea2a8e0	0.31769466
100	0x3e318c16	0.17338595
101	0xbf797f53	-0.97459906
102	0x3d90130e	0.070348844
103	0x3ea79d7c	0.3273734
104	0x3fa99d8d	1.3251206
105	0xbfeb0491	-1.8360769
106	0x3f2385b2	0.6387588
107	0xbfb7085d	-1.4299427
108	0x3f0c0dbe	0.5470847
109	0xc012817b	-2.2891529
110	0x3fd392ac	1.6529136
111	0xbefbbc51	-0.49167112
112	0xbddd9164	-0.10818747
113	0xc0188dde	-2.383659
114	0x3e783068	0.24237216
115	0x3de2a04d	0.11065731
116	0x3f41a9a6	0.7564949
117	0xbea604de	-0.32425588
118	0x3f66f316	0.9021467
119	0x3e663201	0.22480012
120	0x3f580653	0.8438465
121	0xbeff64c1	-0.49881557
122	0xbfc5c47e	-1.545059
123	0x3f5c9b3c	0.8617437
124	0x3f386bc7	0.72039455
125	0x3f984cf4	1.1898484
126	0xbf58a76f	-0.84630483
127	0xbdfecd2e	-0.12441479
128	0xbfe5b3e1	-1.794552
129	0xbfdebe60	-1.7401848
130	0xbfd2d404	-1.6470952
131	0xbce56d92	-0.028006349
132	0xbfa1ccfb	-1.264068
133	0x3f556e52	0.8337146
134	0x3f9b13ff	1.2115477
135	0x3dd0e52c	0.10199961
136	0x3f991d74	1.1962113
137	0x3fc13142	1.5093157
138	0xbfee307b	-1.8608545
139	0x3ea23485	0.31680694
140	0x3ec38b29	0.38192108
141	0x3d9ff745	0.07810835
142	0x407ebbf2	3.9802213
143	0xbfce1f5f	-1.6103324
144	0xbfdb8623	-1.715031
145	0xc0273725	-2.6127408
146	0xbe118ee1	-0.1421466
147	0x3f150cf0	0.58222866
148	0xbf874471	-1.0567762
149	0xbfb5ce79	-1.4203635
150	0x401e2774	2.471158
151	0x3f86cfc5	1.0532156
152	0x3e8350d3	0.256476
153	0x3f9deecf	1.2338504
154	0x3f820930	1.0159054
155	0x3fbfa830	1.4973202
156	0xbfd9ff12	-1.7030966
157	0x3f649437	0.8928866
158	0x3dc695ae	0.09696518
159	0xbf97eced	-1.1869179
160	0xc02e94f8	-2.7278423
161	0xbf838482	-1.0274813
162	0xbf896916	-1.0735195
163	0x3f53c9fb	0.8273007
164	0x3dac3845	0.0840917
165	0xbfe4fa0b	-1.7888807
166	0xbeb0def2	-0.34545094
167	0x3efecb80	0.49764633
168	0x3f4a4b93	0.7902157
169	0x3f1ec518	0.6201949
170	0x3f82f2dd	1.0230366
171	0xbeb3506b	-0.35022292
172	0x3f25931c	0.64677596
173	0xc04bd0de	-3.1846232
174	0x3fe19ed8	1.76266
175	0xbfb680f0	-1.4258099
176	0xc000a0d8	-2.0098171
177	0xbf84530a	-1.0337842
178	0x3e98c791	0.29839757
179	0xbd86caea	-0.065816715
180	0x3e0955a5	0.13411577
181	0x3eef4681	0.46733478
182	0x3f953762	1.1657526
183	0xc012de93	-2.2948349
184	0x40125d24	2.2869349
185	0x3e822aed	0.25423375
186	0xbf22550c	-0.6341102
187	0x3f2b9690	0.67026615
188	0xbf09fbb6	-0.53899705
189	0x3fc47927	1.5349473
190	0xbe87fb9a	-0.26559144
191	0x3d258331	0.040408317
192	0xbf2de326	-0.67924726
193	0x3fb289d3	1.3948311
194	0x3fb97550	1.4488926
195	0x3e289e8c	0.16466731
196	0xbf363c89	-0.7118612
197	0x400d04ef	2.2034261
198	0xbef19b6d	-0.47188893
199	0xbf0cfeaa	-0.55076087
200	0x3f976656	1.1828105
201	0xbf74d408	-0.95636034
202	0x3dba1f6a	0.09088023
203	0xbf8339d2	-1.025202
204	0xbe1accf2	-0.15117243
205	0xbf342145	-0.70363265
206	0x3f9d9b9a	1.2313111
207	0x3f91bfc7	1.1386651
208	0xbeeaa8c3	-0.4583188
209	0xbfffed45	-1.9994284
210	0xbf0c0ba1	-0.54705244
211	0x3e83c9ea	0.25739986
212	0x3f068497	0.52546066
213	0x3e3ed32d	0.18635245
214	0x3e65d03f	0.22442721
215	0x3cb7c852	0.022434387
216	0x3f10cf7b	0.5656659
217	0x3f1bb233	0.60818785
218	0x3f7a80c9	0.9785276
219	0x3fbb68e7	1.4641389
220	0x400aadc5	2.166856
221	0x3e5b86ec	0.21438187
222	0x3ec5fd6d	0.3866991
223	0x3f2e00b9	0.6796985
224	0x3f87da3f	1.0613478
225	0xbf833bfc	-1.0252681
226	0xbf28a56a	-0.658774
227	0x40156883	2.334504
228	0xbe190d61	-0.1494651
229	0xbf4201d8	-0.75784063
230	0xbfedb29f	-1.8570136
231	0x3ed65139	0.41858843
232	0xbf83a9c7	-1.0286187
233	0x3ec97eec	0.39354646
234	0x3f8c3975	1.0955034
235	0x3edd16a8	0.43181348
236	0x3f2d16ea	0.6761309
237	0xbf044581	-0.51668555
238	0x3f0cefad	0.55053216
239	0xbdb4cbd0	-0.08827937
240	0x3f0d9542	0.55305874
241	0x3fd88ea8	1.6918535
242	0x3f7729a2	0.965479
243	0xbe8d2b37	-0.27572033
244	0xbfe074ed	-1.7535683
245	0x3fcc5b81	1.5965425
246	0x3e77eaab	0.24210612
247	0x3e8649cc	0.26228178
248	0x3e54f760	0.20797491
249	0x3f017a8a	0.50577605
250	0x3fcf1dba	1.6180947
251	0x3f6d2fff	0.9265136
252	0x3e52b3eb	0.20576446
253	0xbf5f921c	-0.8733232
254	0xbf8e95b4	-1.1139436
255	0xbfbb81a7	-1.4648942

lstm.bias_ih_l0 f4 [256]
0	0x3ee3c679	0.4448736
1	0xbf3d2606	-0.73886144
2	0xbf0f0ed0	-0.5588198
3	0xbf1ea24d	-0.619664
4	0x3f27bea4	0.6552527
5	0xbf725e8d	-0.94675523
6	0xbfce8325	-1.6133772
7	0xbf534345	-0.8252452
8	0xbe78ad08	-0.24284756
9	0x3f898cc3	1.0746082
10	0x3e8d0767	0.2754471
11	0xbebbff43	-0.36718187
12	0xbfe9be4c	-1.8261199
13	0xbf874aab	-1.0569662
14	0xbf959497	-1.1685971
15	0xbda43b03	-0.08019068
16	0x3e27fb82	0.16404536
17	0x3ec27da6	0.37986487
18	0x3f853948	1.0408106
19	0xbd5f49c5	-0.05451371
20	0xbf14d652	-0.58139527
21	0x3e4578ca	0.19284359
22	0xbec77ac5	-0.38960853
23	0xbf6149f9	-0.880035
24	0x3e9b4109	0.30323055
25	0xbee8fd02	-0.4550553
26	0xbfb9a400	-1.4503174
27	0x3ec44ca8	0.38339734
28	0xbf7c3060	-0.98511314
29	0x3e82b361	0.2552748
30	0x3f94005b	1.1562608
31	0xbf597fe3	-0.84960765
32	0xbf9fa570	-1.2472363
33	0xbe7ad5a6	-0.24495563
34	0xbe70b62e	-0.23506996
35	0x3f6cfc13	0.92572135
36	0x3ee4e2b1	0.44704202
37	0xbfbe914c	-1.4888091
38	0xbf03549b	-0.5130097
39	0x3deddd01	0.11614419
40	0xbf1e89b8	-0.6192889
41	0xbf41c3bd	-0.756893
42	0xbf5d9714	-0.8655865
43	0x3e8be662	0.27324206
44	0xbf4a0047	-0.78906673
45	0xbf9de5c0	-1.2335739
46	0x3eaccb9a	0.33749086
47	0x3d42112b	0.047379654
48	0x3f24ebec	0.6442249
49	0xbd83db28	-0.06438285
50	0xbed8262f	-0.42216632
51	0xbcf571ac	-0.02996143
52	0xbf312aa7	-0.6920571
53	0xbd239167	-0.03993359
54	0xbf6a41b5	-0.9150651
55	0x3e2f202a	0.17102113
56	0xbee34f6e	-0.44396538
57	0xbe9c9cc5	-0.30588356
58	0xbec09fb2	-0.37621838
59	0xbf439ae3	-0.76408213
60	0x3f5efc49	0.87103707
61	0xbf0ccbf3	-0.549987
62	0xbe727e81	-0.2368107
63	0x3e21c39d	0.15797277
64	0x3dbda879	0.09260649
65	0x3ec6b4f4	0.3880993
66	0x3f925bb6	1.1434238
67	0xbf2a2698	-0.6646514
68	0xbd91418d	-0.07092581
69	0x3dec49a3	0.115374826
70	0xbdd11d9d	-0.102107264
71	0x3e912b8e	0.28353542
72	0xbf0b4293	-0.5439846
73	0x3c0c4d36	0.00856333
74	0x3ea97fd7	0.33105347
75	0x3f082cdd	0.53193456
76	0xbfaeb7ab	-1.3649801
77	0xbe0ea49e	-0.13929984
78	0xbe2eaf8f	-0.17059158
79	0x3f07ef0d	0.5309914
80	0xbe837a80	-0.25679398
81	0x3e5a10d3	0.2129548
82	0xbf0356dc	-0.5130441
83	0x3eccf153	0.40027866
84	0xbfa1dea4	-1.264607
85	0x3c80e86d	0.01573583
86	0x3e185f98	0.14880216
87	0xbf8207c4	-1.015862
88	0xbf24b4f2	-0.643386
89	0xbec11978	-0.37714744
90	0xbf945b4f	-1.1590365
91	0xbf0a6389	-0.5405813
92	0x3e6571e1	0.22406723
93	0xbeb0f76d	-0.3456377
94	0x3f19250c	0.59822154
95	0x3ebba049	0.36645725
96	0x3f884226	1.0645187
97	0x3e9535b9	0.2914255
98	0xbed8bafc	-0.42330158
99	0x3e8299aa	0.2550786
100	0x3f060bfc	0.52362037
101	0xbe8891f6	-0.2667386
102	0xbf23c886	-0.6397785
103	0xbe7636e1	-0.24044372
104	0xbea80b1c	-0.32820976
105	0xbfa16648	-1.2609339
106	0xbfbc34c7	-1.4703606
107	0x3f8a1b54	1.078959
108	0x3ea8d182	0.32972342
109	0x3eecd3bd	0.46255293
110	0xbb6e287e	-0.0036340053
111	0x3f0a72a0	0.54081154
112	0x3f858685	1.0431677
113	0xbf0ae3f9	-0.5425411
114	0x3eb8da6e	0.3610415
115	0xbf97dc2a	-1.1864064
116	0xbf99e78d	-1.2023789
117	0xbf87bb82	-1.0604098
118	0xbf58668e	-0.84531486
119	0x3ede570d	0.4342579
120	0xbe05a72d	-0.13052054
121	0xbea38e08	-0.319443
122	0xbf195559	-0.59895855
123	0xbf680707	-0.9063572
124	0x3ee49b0b	0.44649538
125	0xbe81c036	-0.25341958
126	0x3e054c1e	0.13017318
127	0x3e6f745e	0.23384234
128	0x3edcf8dd	0.43158618
129	0xbe8573c1	-0.26064876
130	0x3d3a4f6c	0.0454859
131	0x3ee26ea1	0.44225028
132	0x3f08d8e5	0.53455955
133	0xbec5040d	-0.38479653
134	0x3db9e0fb	0.09076115
135	0xbe813eec	-0.25243318
136	0x3f0dc295	0.55375034
137	0xbf1d5153	-0.61452216
138	0x3f3a3d40	0.7274971
139	0x3e4aec91	0.19816805
140	0x3d9c8354	0.07642236
141	0x3d26071d	0.040534128
142	0xbeeae043	-0.45874223
143	0xbef22b72	-0.4729877
144	0xbe18fd44	-0.14940363
145	0x3ea26b25	0.3172237
146	0xbefa4ccb	-0.48886713
147	0x3dc2c99a	0.09511109
148	0xbe27c0cc	-0.1638214
149	0x3f3f9966	0.7484344
150	0xbef53378	-0.4789083
151	0xbf8c63ca	-1.0967953
152	0x3eaa3c57	0.3324916
153	0xbf02556f	-0.5091161
154	0x3dca5672	0.098797694
155	0x3e920044	0.28515828
156	0x3e48c325	0.19605692
157	0xbf2f9f2d	-0.6860226
158	0xbf4074c4	-0.7517817
159	0xbe118f63	-0.14214854
160	0x3e78d3ba	0.24299517
161	0x3dfd5050	0.12368834
162	0x3ddd7bc7	0.10814624
163	0xbf7d337c	-0.98906684
164	0xbf7a996c	-0.97890353
165	0xbebd8828	-0.3701794
166	0x3f36732e	0.712695
167	0x3f68a63d	0.9087866
168	0x3e9a251a	0.3010643
169	0x3ea3f793	0.32024822
170	0xbe5a3bef	-0.21311925
171	0xbfa5ac51	-1.2943212
172	0x3e0be16e	0.13660213
173	0x3ebcc368	0.36867833
174	0xbf096898	-0.5367522
175	0x3eefbe34	0.468248
176	0xbf61ca15	-0.8819898
177	0xbeb205a0	-0.34769917
178	0x3ed2874f	0.41118857
179	0xbe5c3da1	-0.21507885
180	0xbe127b49	-0.14304842
181	0xbe3a46ff	-0.18191145
182	0x3caaa3eb	0.020830115
183	0xbd8e555f	-0.06949877
184	0xbc551923	-0.013006481
185	0x3c84150a	0.016123313
186	0xbeb30730	-0.3496642
187	0xbe7e0aca	-0.24808803
188	0xbe86dcdb	-0.26340374
189	0x3efe5f44	0.49682057
190	0x3f35abf7	0.7096552
191	0x3f3e5300	0.743454
192	0xbef9e2d6	-0.48805875
193	0xbdf1d96a	-0.118090466
194	0x3e9160fa	0.283943
195	0xbe373235	-0.17890246
196	0x3de10f0f	0.109892
197	0x3f6f8fa2	0.9357854
198	0x3eac9f5c	0.33715332
199	0xbe4dc905	-0.20096214
200	0x3f5ef080	0.87085724
201	0x3dfed0cb	0.12442168
202	0x3ec2bbf8	0.38034034
203	0xbf64ea99	-0.8942047
204	0xbffe157a	-1.9850304
205	0xbf995236	-1.1978214
206	0xbeaf6b91	-0.34261754
207	0xbf2eb036	-0.68237627
208	0xbf4f63c5	-0.8101161
209	0x3f0570b2	0.52125084
210	0xbe5363ae	-0.20643494
211	0xbf742b34	-0.9537842
212	0xbee1280e	-0.43975872
213	0xbf41da1e	-0.75723445
214	0xbef454d3	-0.47720966
215	0xbf9bac49	-1.2161952
216	0x3e8d971d	0.27654353
217	0xbfc136fb	-1.5094904
218	0x3ec1be53	0.37840518
219	0x3f0597aa	0.52184546
220	0x3ef7fbf4	0.48434412
221	0xbda7f0c8	-0.08200222
222	0x3f5df02a	0.86694586
223	0xbfa8a96a	-1.3176701
224	0xbe021c0d	-0.12706013
225	0x3f950605	1.1642462
226	0xbf0a4c96	-0.5402311
227	0xbe725d34	-0.23668367
228	0x3d6ada87	0.05733731
229	0xbebd08ee	-0.36920875
230	0xbea9368d	-0.3304943
231	0xbe9fa547	-0.31180784
232	0x3eda3b89	0.42623547
233	0xbf64780b	-0.8924567
234	0x3ece9198	0.40345454
235	0x3fb70fdb	1.4301714
236	0xbebc87e0	-0.36822414
237	0x3f1da526	0.6158012
238	0xbcd46cb4	-0.02593074
239	0xbdd67804	-0.1047211
240	0xbe806439	-0.25076464
241	0xbe42ce87	-0.19024096
242	0x3e8f8182	0.28028494
243	0xbf124037	-0.57129234
244	0xbd05a430	-0.032627285
245	0xbeb62bf8	-0.3558042
246	0xbf79e75e	-0.97618663
247	0xbecdc813	-0.40191707
248	0xbf031dff	-0.51217645
249	0xbefaeff9	-0.4901121
250	0x3eee6833	0.46563873
251	0xbf858ba5	-1.0433241
252	0x3eb62524	0.3557521
253	0xbe9eac6a	-0.30990916
254	0x3ec247a7	0.3794529
255	0x3d97e022	0.07415797

lstm.bias_hh_l0 f4 [256]
0	0x3ed0999c	0.40742195
1	0xbf148709	-0.5801855
2	0xbf1d1bea	-0.6137072
3	0xbf1df5ac	-0.6170299
4	0x3f198f46	0.5998424
5	0xbf64c868	-0.89368296
6	0xbfe097b7	-1.75463
7	0xbf4d041a	-0.80084383
8	0xbd83dad8	-0.064382255
9	0x3f5f6631	0.87265307
10	0x3e912ee1	0.28356078
11	0xbf00e59f	-0.50350374
12	0xbffbab42	-1.9661639
13	0xbf894752	-1.072489
14	0xbf87e47c	-1.0616603
15	0xbe909993	-0.28242168
16	0x3ec362a5	0.38161197
17	0x3e9d62bc	0.3073939
18	0x3f719c81	0.9437943
19	0x3d15d880	0.036583424
20	0xbf3948ee	-0.72376907
21	0x3e06fdd6	0.13182768
22	0xbf038cff	-0.5138702
23	0xbf71e70f	-0.9449319
24	0x3ec33ae1	0.3813086
25	0xbf13542c	-0.5755031
26	0xbfb69e42	-1.4267046
27	0x3e4d0f7f	0.20025443
28	0xbf732426	-0.94977033
29	0x3dee86c8	0.11646801
30	0x3f980cab	1.1878866
31	0xbf5ac8cf	-0.8546266
32	0xbf9309ec	-1.1487403
33	0xbed9b4c0	-0.42520714
34	0xbe85d27f	-0.26137158
35	0x3f7e772e	0.99400604
36	0x3eb0829b	0.34474644
37	0xbfb222f6	-1.3916919
38	0xbf2b198b	-0.6683585
39	0x3e351832	0.17685011
40	0xbee10b7d	-0.43954077
41	0xbf2701c5	-0.65237075
42	0xbf8781d0	-1.0586491
43	0x3eae6e76	0.3406865
44	0xbf384e11	-0.7199412
45	0xbf9f31f8	-1.2437124
46	0x3efbaf2d	0.49157086
47	0x3d9133c7	0.07089954
48	0x3f5e6d7a	0.868858
49	0xbd8de40c	-0.06928262
50	0xbea6d8c3	-0.3258725
51	0xbd0c67c2	-0.03427864
52	0xbf48a208	-0.7837224
53	0x3d64a10c	0.05581765
54	0xbf5609fd	-0.8360899
55	0x3e75adae	0.23992035
56	0xbec7efd1	-0.39050153
57	0xbe1dab27	-0.1539732
58	0xbeb51021	-0.35363868
59	0xbf6504d3	-0.89460486
60	0x3f7a85bc	0.9786031
61	0xbf0c431c	-0.547899
62	0x3bae8b7c	0.0053266864
63	0x3e2231cc	0.15839309
64	0x3c77d799	0.015127086
65	0x3e506ecb	0.20354764
66	0x3f8d09bf	1.1018599
67	0xbeff4b35	-0.49862066
68	0xbddffd90	-0.10937035
69	0x3d488870	0.048958242
70	0xbdf4f99c	-0.11961672
71	0x3d8396b8	0.06425232
72	0xbf16cfdb	-0.5891091
73	0xbc603e9f	-0.013686805
74	0x3e9b55a5	0.3033878
75	0x3edb372f	0.4281554
76	0xbfc66ed0	-1.5502567
77	0xbc5c0187	-0.0134280985
78	0xbb7ee684	-0.0038894722
79	0x3f0d0994	0.5509274
80	0xbec26260	-0.3796568
81	0x3e06773d	0.13131423
82	0xbef0c35c	-0.47024047
83	0x3f1423f4	0.5786736
84	0xbf9b439c	-1.2130008
85	0xbd6f222d	-0.058382202
86	0x3e80ab14	0.25130522
87	0xbf88f7bb	-1.0700601
88	0xbf09d766	-0.53844297
89	0xbebeecd9	-0.37290075
90	0xbf86b98c	-1.0525374
91	0xbf285ec5	-0.65769607
92	0x3e8a0a6b	0.26961073
93	0xbea46bed	-0.3211359
94	0x3f2148cb	0.630017
95	0x3e8eae6a	0.27867442
96	0x3f847282	1.0347445
97	0x3e052155	0.13000996
98	0xbebcc80c	-0.36871374
99	0x3ebeb6b6	0.37248772
100	0x3e9ffd71	0.31248048
101	0xbede4778	-0.434139
102	0xbf333ed7	-0.7001776
103	0xbe8209ad	-0.25398007
104	0xbee82319	-0.45339277
105	0xbf94ca90	-1.1624317
106	0xbfc01722	-1.500706
107	0x3f934426	1.1505172
108	0x3e936a13	0.28791866
109	0x3efbdea6	0.49193305
110	0xbda408bb	-0.08009478
111	0x3f0302bb	0.5117604
112	0x3f515661	0.8177243
113	0xbec66027	-0.38745233
114	0x3e1a8c40	0.15092564
115	0xbf953a91	-1.1658498
116	0xbf92fbeb	-1.1483129
117	0xbf8bd90d	-1.0925614
118	0xbf3bc6ab	-0.7335002
119	0x3edbcdd1	0.42930463
120	0xbdbc3802	-0.0919037
121	0xbed68a09	-0.41902187
122	0xbf245750	-0.6419573
123	0xbf62f174	-0.8864968
124	0x3efa7880	0.4892006
125	0xbe9d15cf	-0.306807
126	0x3e812726	0.2522518
127	0x3da4a4c7	0.08039241
128	0x3ebf6596	0.3738219
129	0xbe66f780	-0.22555351
130	0xbe1f5da4	-0.15563065
131	0x3f13ffae	0.5781201
132	0x3f430962	0.7618619
133	0xbe9c8ee0	-0.30577755
134	0x3d9dc99b	0.07704469
135	0xbea2ffa0	-0.3183565
136	0x3f0684b3	0.5254623
137	0xbf52839a	-0.8223206
138	0x3f3df577	0.74202675
139	0x3e5f4e50	0.21807218
140	0xbcaa4fdf	-0.020790039
141	0x3e1a0e22	0.15044454
142	0xbe9292a1	-0.28627494
143	0xbece6a38	-0.40315413
144	0xbd16724b	-0.036730092
145	0x3eb2343d	0.3480548
146	0xbedadfbd	-0.42748824
147	0x3e0d02dd	0.13770624
148	0x3d3f4466	0.04669609
149	0x3f1f562c	0.6224086
150	0xbf179574	-0.5921242
151	0xbf83c613	-1.0294822
152	0x3efe057a	0.49613553
153	0xbeb23f1f	-0.34813783
154	0x3d6788c5	0.056526918
155	0x3eb00430	0.34378195
156	0x3b5ef27d	0.0034019046
157	0xbf325b40	-0.69670486
158	0xbf482387	-0.7817921
159	0xbe27d417	-0.163895
160	0x3eca752f	0.3954253
161	0x3e636d4b	0.2220966
162	0x3e862be0	0.2620535
163	0xbf75ca88	-0.96012163
164	0xbf88c3a7	-1.0684708
165	0xbeaf6024	-0.34253037
166	0x3f0eef34	0.55833745
167	0x3f42505f	0.75903887
168	0x3f00d54f	0.50325483
169	0x3ed5f990	0.41791964
170	0xbe39ab4a	-0.18131748
171	0xbf8aa098	-1.0830259
172	0xbc276af2	-0.010218369
173	0x3ebfbf25	0.3745052
174	0xbed77efa	-0.42089063
175	0x3f1e016b	0.61720914
176	0xbf857470	-1.0426159
177	0xbf0ed9fe	-0.5580138
178	0x3f16f6d7	0.589704
179	0xbe62535c	-0.22102112
180	0xbdc2a780	-0.09504604
181	0xbe800ac6	-0.2500822
182	0x3d4e9a1f	0.05043995
183	0xbe49887c	-0.19680971
184	0xbe76f138	-0.24115455
185	0x3b6f86b6	0.00365488
186	0xbecf7b1d	-0.40523615
187	0xbe981bb0	-0.29708624
188	0xbdc70abf	-0.097188465
189	0x3f0d378a	0.5516287
190	0x3f3ee883	0.74573535
191	0x3f535214	0.82547116
192	0xbecc2f94	-0.3988005
193	0xbe3f2d26	-0.18669567
194	0x3ecc4c59	0.39902
195	0xbeada9bd	-0.33918563
196	0xbc62dbc8	-0.013846345
197	0x3f670aec	0.9025104
198	0x3ed249c9	0.4107192
199	0xbe62cce1	-0.22148468
200	0x3f73fd6b	0.9530856
201	0x3e10981d	0.14120527
202	0x3f034e91	0.5129176
203	0xbf6a7e19	-0.9159866
204	0xbfeb00d5	-1.8359629
205	0xbf93f7c4	-1.1559987
206	0xbec758ab	-0.38934836
207	0xbf2978d6	-0.66200006
208	0xbf59a8a0	-0.85022926
209	0x3f1c9580	0.6116562
210	0xbdcc95fa	-0.09989543
211	0xbf872642	-1.055855
212	0xbf000199	-0.5000244
213	0xbf331164	-0.6994841
214	0xbef3c591	-0.4761167
215	0xbf8c0959	-1.0940353
216	0x3e6f186e	0.23349163
217	0xbfc17ea1	-1.5116769
218	0x3ea41d2e	0.32053512
219	0x3f2348ad	0.6378277
220	0x3ef0103f	0.46887395
221	0xbe214385	-0.15748413
222	0x3f208434	0.62701726
223	0xbf9bfa94	-1.2185845
224	0xbe1eb533	-0.1549881
225	0x3fa31d77	1.2743367
226	0xbec5e591	-0.38651708
227	0xbe311018	-0.17291296
228	0x3d9a64b2	0.07538737
229	0xbe337876	-0.17526421
230	0xbea5e72a	-0.32402927
231	0xbeaca971	-0.33723024
232	0x3f12f3e9	0.5740343
233	0xbf465c18	-0.77484274
234	0x3eb32c1c	0.3499459
235	0x3fb51b65	1.4148985
236	0xbdffa245	-0.12482122
237	0x3ee73386	0.45156497
238	0xbda4ff5a	-0.08056517
239	0xbe0634d1	-0.13106085
240	0xbe3fd803	-0.18734746
241	0xbe86866f	-0.2627444
242	0x3e5f476a	0.21804586
243	0xbf2080d7	-0.62696594
244	0x3aa3167d	0.0012442615
245	0xbed912fc	-0.42397296
246	0xbf829011	-1.0200216
247	0xbee6d0f2	-0.45081288
248	0xbf131cbf	-0.5746574
249	0xbeb254ee	-0.3483042
250	0x3ecdf9ed	0.4022974
251	0xbf6de1fb	-0.92922944
252	0x3ec436d9	0.38323095
253	0xbeaa22d3	-0.33229694
254	0x3eac9806	0.33709735
255	0x3daadf18	0.08343333

lstm.weight_ih_l1 f4 [256, 64]
0	0xbf129ef3	-0.5727379
1	0xbe22ea60	-0.1590972
2	0x3e4b2562	0.19838479
3	0xbf2a04f5	-0.66413814
4	0xc01ebe02	-2.4803472
5	0x3ff76711	1.9328328
6	0xbd90a9ef	-0.07063662
7	0x3f12bdbd	0.5732077
8	0xbf4bb2f9	-0.79569966
9	0x3faf724f	1.3706759
10	0xbee2a93d	-0.44269744
11	0xbfc30eef	-1.5238932
12	0x3f7c2b5d	0.9850367
13	0x3f036c00	0.5133667
14	0x3d678d94	0.056531504
15	0xbf298bd8	-0.6622901
16	0x3fa53c35	1.2908999
17	0x3f8f4069	1.1191531
18	0xbd343db9	-0.044004176
19	0xbe8de7df	-0.27715966
20	0xbf8bafcf	-1.0913028
21	0xbfcbbbf6	-1.5916736
22	0xbf8bb6a3	-1.0915111
23	0xbf5fa7ff	-0.87365717
24	0xbf521256	-0.8205923
25	0xbf3e9aa6	-0.74454725
26	0x3f41b839	0.75671726
27	0xbf3a2dd3	-0.7272617
28	0x3f51268a	0.8169943
29	0x3ff5be46	1.9198692
30	0x3f44699a	0.76723635
31	0x3f1771ab	0.5915782
32	0xbf1253bb	-0.5715901
33	0xbf2d8230	-0.67776775
34	0xbf7c64d2	-0.9859134
35	0x3fac83a2	1.3477671
36	0xbead5f84	-0.33861935
37	0xbe49dacd	-0.19712372
38	0x3f83a784	1.0285497
39	0xbf55cb93	-0.83513755
40	0xbfbe972c	-1.4889884
41	0xbf8abac1	-1.0838243
42	0xbf8c17f8	-1.0944815
43	0xbe027f84	-0.12743956
44	0xbf073d62	-0.5282804
45	0xbfab471c	-1.3381076
46	0x400fcd84	2.2469187
47	0xbf81284c	-1.0090423
48	0x3e49c789	0.19705023
49	0x3f296094	0.6616299
50	0xbdf3f81e	-0.11912559
51	0x3f6b2748	0.91856813
52	0x3f22b7ce	0.63561714
53	0x3eaade65	0.333728
54	0x3f6c15fa	0.92221034
55	0x3f729845	0.94763595
56	0x3fecc465	1.8497435
57	0xbf8a6cac	-1.0814414
58	0x3fc8b7d5	1.5681101
59	0x3fc60814	1.5471215
60	0x3fe5b962	1.7947199
61	0xbfb9f774	-1.4528642
62	0xbfff84ca	-1.9962399
63	0xbf90d26d	-1.1314217
64	0x3f0faba3	0.5612127
65	0x3ea4f04c	0.32214582
66	0x3e8ce775	0.27520338
67	0x3c8d58fb	0.017254343
68	0x3de9813b	0.11401602
69	0xbf02c574	-0.5108254
70	0xbda77990	-0.08177483
71	0xbf251c77	-0.6449656
72	0xbff5a4fb	-1.9190973
73	0xbdd5f278	-0.10446638
74	0xbf13aa51	-0.5768176
75	0x3df05f3b	0.11736914
76	0x3e7ec923	0.24881415
77	0x3ece5cc1	0.4030514
78	0xbe610891	-0.21975924
79	0xbe247b60	-0.16062689
80	0xbe43c4c9	-0.19118036
81	0xbe24f843	-0.1611033
82	0x3db5117c	0.088412255
83	0x3c187b87	0.009306795
84	0x3dffd4d9	0.12491769
85	0x3f0ef2a7	0.5583901
86	0xbf169358	-0.5881858
87	0xbf685386	-0.90752447
88	0x3e8cf4b3	0.2753044
89	0xbea17592	-0.31535012
90	0xbe7727ab	-0.24136226
91	0x3f62889c	0.884897
92	0x3e5d988e	0.21640226
93	0xbe931675	-0.2872807
94	0xbf16a2e4	-0.588423
95	0xbeec4df5	-0.46153226
96	0x3fe54ddb	1.7914385
97	0xbf595a85	-0.84903747
98	0x3ee90050	0.4550805
99	0x3e5cbf9e	0.21557471
100	0xbf21c3e7	-0.6318955
101	0x3ee5a9f6	0.44856232
102	0xbdb4184e	-0.08793698
103	0xbea7b5b6	-0.32755822
104	0x3d93a1e4	0.072086126
105	0x3f50ce1c	0.815645
106	0x3d7b0a61	0.061289195
107	0x3ea470b9	0.3211725
108	0xbce63f36	-0.028106313
109	0x3dcc1ee2	0.09966828
110	0xbe0907b5	-0.13381846
111	0x3f5f6e10	0.8727732
112	0x3c67e593	0.014153856
113	0x3e868c65	0.26278988
114	0x3ee5cfcd	0.44885102
115	0xbe53726e	-0.2064912
116	0x3e59235f	0.21204899
117	0xbf2053e1	-0.6262799
118	0xbe888998	-0.26667476
119	0x3f8d9cb6	1.1063449
120	0x3cddb459	0.027063536
121	0x3ee0c8df	0.43903252
122	0xbec6fff1	-0.38867143
123	0x3e851505	0.259926
124	0x3f92bdc8	1.1464167
125	0x3e321a46	0.17392835
126	0xbecebb52	-0.4037729
127	0x3eb9bcfb	0.36276993
128	0xbeb685de	-0.35649008
129	0x3ef2ae6f	0.47398707
130	0xbe9877e4	-0.2977897
131	0x3d393792	0.04521901
132	0x3db14ce9	0.086572476
133	0xbf04f809	-0.5194097
134	0x3f3d895b	0.7403771
135	0x3cdeab3b	0.027181258
136	0xbf86746e	-1.0504282
137	0x3f692ce9	0.9108415
138	0x3e24426a	0.1604096
139	0x3efdea41	0.49592784
140	0x3ee71ba6	0.45138282
141	0x3e197120	0.1498456
142	0xbf280b3a	-0.6564213
143	0xbd646e07	-0.055768993
144	0x3f8e5b2a	1.1121571
145	0x3e94a4b2	0.29031903
146	0x3ba9a4bf	0.00517711
147	0xbe3ff996	-0.18747553
148	0xbfa74fcf	-1.3071231
149	0xbed9751d	-0.42472163
150	0xbeb6d677	-0.357105
151	0x3b7612fc	0.0037547937
152	0x3c33760f	0.01095344
153	0x3d72d59c	0.059285745
154	0xbf0bf603	-0.5467226
155	0xbf0aeaaa	-0.5426432
156	0x3f265af5	0.6498254
157	0x3ee2e79c	0.4431733
158	0x3ea8376b	0.3285478
159	0x3fa0a6c9	1.2550899
160	0x3f25b84c	0.6473434
161	0xbfa21d55	-1.2665201
162	0xbf240675	-0.6407235
163	0x3f388d6c	0.7209079
164	0x3e5e51f5	0.21710952
165	0x3eb81270	0.35951567
166	0x3e9f3d98	0.3110168
167	0xbfb2906b	-1.3950323
168	0xbe94072e	-0.28911728
169	0x3edc2cc1	0.43002895
170	0xbf51f97c	-0.8202131
171	0x3f62f626	0.8865684
172	0x3e08a5f5	0.13344558
173	0xbb84365d	-0.004034801
174	0x3e7c33ac	0.24629086
175	0x3d98cfa3	0.074614786
176	0xbe39c5af	-0.18141817
177	0x3f6b71ae	0.91970336
178	0xbf18bab6	-0.596599
179	0x3da85acc	0.08220443
180	0x3de0a84c	0.109696
181	0x3da8f5d5	0.08250014
182	0xbf1fcec7	-0.6242489
183	0x3fa4aa68	1.2864504
184	0xbf171768	-0.5902009
185	0xbec4f662	-0.38469225
186	0x3e92cd05	0.28672042
187	0x3f022a49	0.5084577
188	0xbe10a3d4	-0.14124995
189	0x3f452c75	0.7702096
190	0x3d37855a	0.04480491
191	0xbeed0cb6	-0.4629876
192	0xbf75b55a	-0.95979846
193	0xbe907b11	-0.28218892
194	0x3eeca401	0.46218875
195	0xbf994803	-1.1975101
196	0xbf2b5fc4	-0.66943
197	0xbe1c277f	-0.15249442
198	0x3f71300e	0.9421395
199	0x3e83ca4d	0.2574028
200	0xbf820579	-1.015792
201	0x3f56f4dc	0.83967376
202	0xbed772a8	-0.42079663
203	0xbefd62e6	-0.49489516
204	0x3ea6f086	0.3260538
205	0xbfd820f2	-1.6885054
206	0xbf2fe7bd	-0.6871298
207	0xbf5ec3bf	-0.87017435
208	0x3fc74fbc	1.5571208
209	0x3f151318	0.5823226
210	0x3ed1d8b0	0.40985632
211	0xbd661c75	-0.056179482
212	0xbeb58807	-0.35455343
213	0xbcf35242	-0.02970231
214	0xbe92d0dc	-0.28674972
215	0xbf6c78db	-0.9237191
216	0x3d5dd282	0.054155834
217	0x3f1c966f	0.61167043
218	0xbf5f4839	-0.8721958
219	0x3ea83db7	0.32859585
220	0x3f9bc63d	1.2169873
221	0x3f6bb56f	0.9207372
222	0x3f8198e8	1.0124788
223	0x40020b04	2.0319223
224	0x3eaaef9b	0.3338593
225	0x3f74dae7	0.9564652
226	0xbfac5b65	-1.3465391
227	0x3f75290a	0.95765746
228	0x3fe1ba5c	1.7634997
229	0xbf8a5d09	-1.0809642
230	0xbc6e0d78	-0.014529578
231	0xbf89ff46	-1.0781028
232	0xbfc2c9cf	-1.5217837
233	0x3fe3afbf	1.7788008
234	0xbfae0a7d	-1.3596951
235	0x3eb61998	0.355664
236	0xbe27bb1b	-0.16379969
237	0x3e9a3601	0.30119327
238	0x3e72706f	0.23675703
239	0x3e141485	0.14460953
240	0x3f55461b	0.833101
241	0x3f68d230	0.9094572
242	0xbe17424c	-0.14771384
243	0x3f0cfe8b	0.550759
244	0xbe18ab07	-0.14908992
245	0x3f5c3a84	0.8602679
246	0x3e4ebcba	0.20189181
247	0x3f141456	0.5784353
248	0xbe52b9a4	-0.20578629
249	0xbf465bb7	-0.77483696
250	0xbf0f488d	-0.5597008
251	0xbe2c8bba	-0.16850176
252	0x3f66aae0	0.90104485
253	0xbedb40f8	-0.42823005
254	0xbdd47391	-0.10373605
255	0xbf2d7489	-0.67755944
