{RESULTS_FOLDER}sequence_model.pth (torch, 245889 bytes, 13 tensors)

conv1.weight f4 [16, 3, 3, 3]
00000000: 27d8 0bbf f80e e03e 9873 6dbf 2c39 3cbf
00000010: 5d2d 593f f195 71bd a1ac a83f 3b3d 973f
00000020: 8301 9abd 980e 89bf 639d 05be a626 c2bf
00000030: 6078 073d a087 1fbf 0c95 393e 200e aa3e
00000040: 80fb 603f 0c9b 5cbf d33e 1e3f c2c1 a4be
00000050: d3f6 813d 0c9e bebe aa52 bd3e 97bd 81bf
00000060: f410 083e d2dc 613e 1f2d 0c3f 4049 8b3f
00000070: f2f6 98bf 3679 5bbf 2ade 9cbf b5b3 903d
00000080: 40dd 7d3e 67e8 d53f 4357 95bf 3233 7e3f
00000090: 1082 fbbf af62 aabf 03e2 1d3f d5ad 783f
000000a0: b66e 69bf ba88 a2be 0bcb 85bf c8c4 a5bf
000000b0: 87bf ad3f e925 ce3c 7640 80be d056 cdbe
000000c0: 389e 2abe 756e b3be a3f6 3d3f d903 21bf
000000d0: 80a5 e3be 5269 81bf 034c 88bf 62d5 81be
000000e0: aef5 e7be 73b0 62bf f8f4 46bf fb70 b03e
000000f0: c9b2 0cbf 853a e0bd 5e85 a23f 9903 07be
00000100: d0ad 88be f97d 0fbf 167e 8bbf d55b 8abf
00000110: d7a6 2a3f 4041 5f3f 4e37 cf3e 772e a03f
00000120: 7f75 10bf 58cc 7f3f 18e5 003e 5f72 0e3f
00000130: 783a 2ebf eb17 243d a908 943e 88c3 57bf
00000140: e3c8 4e3f 0b71 893e 11a6 31bf 3ac5 31bf
00000150: 1548 573f 0b06 5b3e 1b63 ad3c 810a 87be
00000160: 937f 2d3e 0075 bbbe 1cf5 69bf f79f 19bf
00000170: 60eb ddba 3a43 eebe 5faf 953f 4c2e 7e3f
00000180: 38c8 8ebe 12b2 a83e a4fc 14bf 2e63 b33e
00000190: 2b5e 3dbf 2dec 3ebf ed59 f9bd 0f16 cfbd
000001a0: b80f 15bf 0020 cd3e 1174 ce3e cb0c 903e
000001b0: 4e24 c03f 58ea 133f 24b3 56bf 018a 2d3d
000001c0: e16c 03bf d8bf 7d3f 61b9 093f 8830 15bf
000001d0: 62ea 2a3f c40a cb3f 3cb0 483f c7e0 953d
000001e0: fcda e6bc 0c19 28bf cb8d a33f da73 813e
000001f0: 7230 5abf d1f4 683f 0819 513e 061d bbbe
00000200: b6a9 d03e af70 57bc b76b 85bf 6ae5 98be
00000210: 28c6 f6bd 99f6 3f3e 9e63 1ebf 8919 52bf
00000220: cc82 94be 96a9 f2be db7a 6bbf 47a4 083f
00000230: e8f1 bf3e ce2c 2d3f 4e5b 18bf ff45 9dbe
00000240: 2517 90bf e1c7 67be 91ae 42bf 329d 42bf
00000250: 7b4e 863f 298d c53e ee57 7a3e 2a12 183f
00000260: aab0 68bf ae73 4a3f 7a98 623a f213 7f3f
00000270: e018 19bf d6b9 a4bd 71fe 303e 155b d4be
00000280: f2a2 0ebf b352 99bc ab11 d63d cd11 ba3d
00000290: fffc 97bf d764 2dbf e05e 8e3f e628 e5be
000002a0: 41a4 99bf edaa 943e c3a8 433f f5a6 20be
000002b0: f638 97bf 818c 9f3f 6f42 183f 0da8 9bbf
000002c0: 3b6d 3ebf 2664 063f 3b36 9a3f 83ac 25be
000002d0: 3995 fb3d 24e5 c3be da59 61be 1ac6 d3bd
000002e0: dd05 32bf f829 1abf 577e debe 0c71 b03c
000002f0: 3393 4ebf fa29 ac3f 0259 d6be c6dc d03d
00000300: a5dc 5d3e cd9d 5cbf 1b74 02bf f878 04be
00000310: b772 f2be 3934 76be 013e 593f 77e4 a73e
00000320: d0ee 15bf 394a ad3d f8a2 0fbf ab43 933e
00000330: ffb7 6c3f a397 91be 5ee9 84be 47ca 333f
00000340: 87e2 fb3e ac35 c23d 28ee 09bf a0c5 44bf
00000350: 593a 863e c127 713e f964 b9be ff07 ee3b
00000360: a6d1 2bbf e68e 78bf 4e95 ae3d c952 003f
00000370: e366 a73e ed36 02bf 3d18 273e d871 ae3f
00000380: 73c1 983f 716d 01bf 884b 11bf 0014 27bf
00000390: 1433 b13f fbfc c1be 57b9 16bf 3d59 d43e
000003a0: 02e2 763f a94a 623f beb0 f7bd c846 b73d
000003b0: 62a4 e9be 438a 003e a6cc 30bf 15d1 55be
000003c0: 09f3 453f 7b05 643f e2c6 233f a184 a2bf
000003d0: b8f6 89bf 5afc 84bf d6e1 d3be 9fdf 263e
000003e0: f3cd b83e 773c b83f 4909 a83f 631c 12bf
000003f0: b664 b0bf 4e03 8fbd 9577 443f 34db 80bf
-0.546267 0.4376142 -0.9275451 -0.7352474 0.84834844 -0.058980886 1.3177682 1.1815561
-0.075198196 -1.0707579 -0.1304832 -1.5168045 0.033073783 -0.6231632 0.18123263 0.33213902
0.8788376 -0.8617408 0.6181461 -0.32179075 0.06345906 -0.37229955 0.3697713 -1.0135983
0.13287717 0.22056893 0.5475635 1.0881729 -1.1950362 -0.8573183 -1.2255299 0.070655264
0.24791431 1.6711549 -1.1667255 0.9929687 -1.9649067 -1.3311366 0.6167299 0.97140247
-0.91184556 -0.3174494 -1.0452589 -1.2950678 1.3574075 0.025164561 -0.2504918 -0.40105295
-0.16661918 -0.3504521 0.7420446 -0.62896496 -0.44462204 -1.0110266 -1.0648197 -0.2535811
-0.45304626 -0.8855049 -0.7771754 0.34461197 -0.54960304 -0.10948662 1.269695 -0.13184966
-0.26695108 -0.56051594 -1.0897853 -1.0809275 0.6666083 0.8720894 0.40471882 1.251418
-0.56429285 0.9992118 0.12587392 0.55643266 -0.68057966 0.040061872 0.28912857 -0.8428273
0.8077528 0.26844057 -0.6939402 -0.6944157 0.84094363 0.21389024 0.021165421 -0.263752
0.16943197 -0.366127 -0.9138963 -0.6000971 -0.0016931109 -0.46535665 1.1694144 0.99289393
-0.2788713 0.32948357 -0.58198 0.35036606 -0.73971814 -0.74579126 -0.12175355 -0.10111629
-0.5822711 0.40063477 0.40322927 0.2813476 1.5011079 0.57779455 -0.83867097 0.04236794
-0.5133801 0.99120855 0.5379849 -0.5827718 0.6676389 1.586266 0.7839391 0.073182635
-0.028180592 -0.6566322 1.2777647 0.252837 -0.8523017 0.9099856 0.20419705 -0.3654558
0.4075448 -0.013149424 -1.0423497 -0.2986253 -0.12049514 0.18746413 -0.61870754 -0.82070214
-0.2900604 -0.4739501 -0.9198434 0.5337567 0.37489247 0.6764649 -0.5951432 -0.30717465
-1.1257063 -0.22634842 -0.7604762 -0.7602111 1.04927 0.3858426 0.24447605 0.59402716
-0.9089457 0.79082763 0.00086439366 0.9963981 -0.5980358 -0.08043258 0.17284562 -0.4147574
-0.55717385 -0.018716192 0.10452589 0.090854265 -1.1874083 -0.67731994 1.1122704 -0.44757766
-1.2003251 0.29036656 0.76429385 -0.15688689 -1.1814258 1.2464753 0.5947637 -1.216066
-0.7438542 0.52496564 1.20478 -0.16179089 0.12284321 -0.38260758 -0.22006932 -0.10340519
-0.69540197 -0.6022029 -0.43455765 0.02153828 -0.8069336 1.345031 -0.41864783 0.10198359
0.216662 -0.86178285 -0.5095841 -0.12936771 -0.47353145 -0.24043359 0.84860235 0.32791492
-0.58567524 0.084614225 -0.56108046 0.28762564 0.92468256 -0.28436002 -0.25959295 0.70230526
0.49196264 0.09482893 -0.5387902 -0.7686405 0.2621639 0.23550321 -0.3620985 0.007264137
-0.67116773 -0.97093046 0.08524571 0.5012632 0.32695684 -0.5086506 0.1631784 1.3628492
1.1934036 -0.5055762 -0.56755877 -0.6526489 1.3843713 -0.3788832 -0.58876556 0.41474333
0.9643861 0.8839517 -0.12094258 0.08949047 -0.45633227 0.12552743 -0.6906227 -0.2088054
0.7732397 0.8907086 0.63975346 -1.2696725 -1.0778418 -1.0389512 -0.41383237 0.16296242
0.36094627 1.4393452 1.3127834 -0.57074565 -1.3780735 -0.06983052 0.7674497 -1.0066895

conv1.bias f4 [16]
00000000: 046c 08bf b95b 0ebe 8556 5bbf 33e7 1dbf
00000010: 96af 89bf b055 54bf 97d8 3cbe 3f3e 89bf
00000020: c641 9bbf f3c3 05bf cff1 30bf b9b1 cabe
00000030: 6006 dfbe c32a 21bf d41f 68bf 0c08 80bf
-0.5328982 -0.13902177 -0.85678893 -0.61680907 -1.075671 -0.8294325 -0.18441997 -1.0722121
-1.2129447 -0.5225212 -0.6911897 -0.39588717 -0.4355955 -0.62955874 -0.90673566 -1.0002456

conv2.weight f4 [4, 16, 3, 3]
00000000: 075e a8bf 0437 21bf 59e5 c3bf 0d95 f43e
00000010: 57e0 b93e 00f3 85bd d2af ef3d 6906 e3be
00000020: ce9a 6fbe eccd e2be e941 2bbe 4dfa 70bf
00000030: b374 343e a6fd c3bf f5a5 a63e c110 503d
00000040: 701f 8ebf 2e8f 55bf c707 823e 074d 57bf
00000050: 94a3 19bf 005f 4f3f 6713 3fbf 3d6a a03e
00000060: 602d 8f3e 3c7e b1be c510 1bbf 7ff0 1bbf
00000070: dd6a 903e b237 d4be 9398 843e 476d 80bd
00000080: 012f c73e dbcd 273e a184 893e c220 51bf
00000090: 091c 5bbf 91a5 c63d 9cdd 56be 1921 ebbe
000000a0: 456c b63d 818d 82bf 9e01 513f 19d1 6f3f
000000b0: 1a75 36bf 460f 6dbf 5751 f6bd f4f7 3ebf
000000c0: 1094 093f 036d 2f3e 226e 37bd ee3f fcbd
000000d0: 2f32 e03e b34c 9dbf f30a b2bf 6afc 493e
000000e0: 0b26 03c0 16ad b13d 724f 3ebe aff4 7fbc
000000f0: c009 b83e 2112 913d 1938 073f c405 60bf
00000100: e40e 4a3e 834a 38bf 2b5b d03e bda4 5fbe
00000110: 8fe5 b93d 0ba1 b33e c2e3 323e 3276 ea3e
00000120: e86f 46bf 2d5a 1bbf 9b56 35bf d92c 683f
00000130: b7b5 5d3f e911 5bbe 0681 6f3e 1847 773e
00000140: 9b05 1e3e efdb 36bf 23a0 2abf 3f96 56bf
00000150: 9297 4e3f 7e7c f63e 2795 4e3f 25aa f8be
00000160: 8e83 24bf 7812 62bf 260f 9e3e 0aef 9cbf
00000170: b651 a4bc bb5b f83e fbca a1bf 4e43 02be
00000180: 557f cc3f 3133 c3be b84d 71bf d7dd 5abf
00000190: c36d 3f3f a9b3 f0bf bcca c8ba 82f8 69be
000001a0: 9479 483c 2eff 153f d4c6 ea3e 7236 173f
000001b0: b8e1 71bf 3e34 0cbf 05e7 3bbf ef90 c7bc
000001c0: 261f 01be f1ad 21bc 03c9 533e 2633 a0be
000001d0: 9e19 333d 0e02 c0bf ee39 323f 2561 d6bf
000001e0: 3fbf 813e ea6b 9a3e 79be e3be f7ed 503f
000001f0: 2883 a43d 42e6 0b3f 1a6e 38be 9719 8cbf
00000200: c5e4 21bf 29d7 fc3e b35f b7bf 0c91 d2bc
00000210: 6dcb 2f3e 5ec7 60bf 84fc 83be 443d a0be
00000220: 83ab 68bf e92e a1be 6032 55be 4008 103f
00000230: 4014 01be f257 883f 7b24 073f d372 1bbf
00000240: eb8b 14bf de14 afbf 6bb7 923e 09b1 81be
00000250: 628f 13bd 1359 9abe bdff 49be 2404 07be
00000260: 0d66 26bf bf38 14be 8665 4ebe e5bf 243f
00000270: 2f57 68bf bf5d 0cbe 8b40 64bf 7627 5bbe
00000280: 6eb2 333e e462 5fbf 4ce4 0bbe eee2 42be
00000290: 8303 753f 5aa4 afbe 9dd8 41bf 884d e63e
000002a0: bbb4 d33b 987d 403e 8a53 3cbf 438d 23bf
000002b0: 0dd0 84bf 8418 7f3e 0a4b 02bd ed4d bd3d
000002c0: a544 d1be f15d 993d b088 debe 00f1 88be
000002d0: e99c 02bf 255a ebbe ff6a 573f d704 dabe
000002e0: 2665 92be 0803 fe3e 08be 93be a892 3cbf
000002f0: 34b5 c1bf d78d 103d 241b 07bf fc86 233f
00000300: a051 02be 0557 b43e 55b6 f23e ad18 94bd
00000310: e126 38bf 1416 2ebf 2511 fbbe 1aee 20c0
00000320: 8723 85be a0b0 44bf 18e0 303d 8975 a7bf
00000330: 5cd7 22bf 93fa b63e 8d8a bdbf f28d 02bf
00000340: 8868 be3e e458 93be 8877 e1be 07e5 9dbe
00000350: 13e1 fdbe 0a4f 96be b05f f9bd c2d2 babe
00000360: 24a0 80bf 895a d2bf c91a 8d3f 300a 4e3f
00000370: 947d b9be ed66 60bf 5343 dbbe ad93 a9be
00000380: f9b6 47bf 138e 19bf f623 3ebd faf2 0e3f
00000390: d5f1 37bf 81ac e8bd db12 f93e 8ce2 ec3d
000003a0: 7e43 15bf ba16 21bf 8ccb d0be ffbd c13d
000003b0: 9172 8f3f a845 1b3f af45 2ebe d2cc fdbd
000003c0: a187 f63d 9526 91bd bb55 4abd 616c 0cbd
000003d0: a628 0ec0 81ac 9dbd 94b8 13bf cab3 9c3e
000003e0: 1db1 bdbf 35cf 56bf 9a4f 22bf b04a b3bf
000003f0: ba75 153e 9f65 0ebf 4046 6fbe f0c5 0dbe
-1.3153695 -0.6297457 -1.5304366 0.47769967 0.3630397 -0.06540489 0.11703457 -0.44340828
-0.23398897 -0.4429773 -0.16724361 -0.9413193 0.17622642 -1.5311782 0.3254849 0.050797228
-1.1103344 -0.834216 0.2539656 -0.8410191 -0.60015225 0.81004333 -0.7463898 0.31331053
0.27964306 -0.34666622 -0.60572463 -0.6091384 0.2820653 -0.41448742 0.25897655 -0.06270843
0.3890305 0.16387121 0.26859 -0.8169061 -0.85589653 0.09699548 -0.20982975 -0.4592369
0.089073695 -1.0199434 0.8164309 0.9367843 -0.7127243 -0.9260143 -0.12027233 -0.74597096
0.5374155 0.17131428 -0.044782765 -0.12316881 0.43788287 -1.2289032 -1.3909591 0.19725195
-2.049197 0.08675592 -0.18584993 -0.015622302 0.3594494 0.07083536 0.52819973 -0.875088
0.19732243 -0.71988696 0.40694556 -0.21840186 0.09076988 0.35083804 0.17469695 0.457933
-0.77514505 -0.6068447 -0.70835274 0.9069343 0.866054 -0.21393551 0.23389062 0.24148214
0.15431826 -0.7142934 -0.666506 -0.8382301 0.8070003 0.48141855 0.8069634 -0.4856731
-0.64263237 -0.8830943 0.30870932 -1.2260449 -0.020058494 0.48507485 -1.264007 -0.12720987
1.5976359 -0.38124993 -0.94259214 -0.8549475 0.7477686 -1.8804828 -0.0015319209 -0.22848704
0.012236018 0.585925 0.4585482 0.5906745 -0.94485044 -0.54767215 -0.7339938 -0.024361102
-0.12609538 -0.009868131 0.20682149 -0.31289023 0.043725602 -1.5000627 0.69619644 -1.6748396
0.25341222 0.30160457 -0.44481257 0.81613106 0.080328286 0.5464822 -0.1801075 -1.0945309
-0.632397 0.49382904 -1.432608 -0.02570393 0.17167445 -0.8780421 -0.25778592 -0.31296742
-0.90886706 -0.31481102 -0.20819998 0.5626259 -0.12605381 1.0651839 0.5279004 -0.6072208
-0.58026 -1.3678243 0.28655562 -0.2533038 -0.036025412 -0.30146083 -0.19726463 -0.13185173
-0.6499947 -0.14474772 -0.20155916 0.6435531 -0.9075803 -0.13707636 -0.89160985 -0.21401772
0.17548534 -0.8726027 -0.13661307 -0.1903188 0.95708483 -0.34305078 -0.7572115 0.44981027
0.0064607537 0.1879791 -0.7356497 -0.63887423 -1.0375992 0.24911696 -0.031809844 0.09243379
-0.40872684 0.07488621 -0.4346366 -0.26746368 -0.51020676 -0.45967212 0.8414764 -0.42581818
-0.28592795 0.49611688 -0.2885592 -0.7366128 -1.5133424 0.03529152 -0.5277579 0.63877845
-0.1272645 0.3522264 0.47404733 -0.07231269 -0.71934325 -0.6800244 -0.49036518 -2.5145326
-0.26003668 -0.7683201 0.043182462 -1.3082744 -0.6360986 0.35738048 -1.4807907 -0.5099784
0.37189126 -0.28778756 -0.44036508 -0.30838796 -0.4958578 -0.29357177 -0.12176454 -0.3648892
-1.0048871 -1.6433879 1.1023799 0.80484295 -0.3622862 -0.8765705 -0.42824802 -0.3312048
-0.7801357 -0.59982413 -0.046421014 0.558395 -0.7185338 -0.113610275 0.48647198 0.11566648
-0.5830611 -0.62925303 -0.40780294 0.09460067 1.1206838 0.6065316 -0.1701877 -0.12392582
0.12037588 -0.07087437 -0.049398165 -0.034283046 -2.221231 -0.07698918 -0.5770352 0.30605918
-1.4819676 -0.8390992 -0.6340271 -1.4007168 0.1459569 -0.5562381 -0.23366642 -0.13845038

conv2.bias f4 [4]
00000000: b085 e2be 730a 75bf f72c 38bd c5ff b5be
-0.4424262 -0.9571907 -0.044964757 -0.355467

lstm.weight_ih_l0 f4 [256, 36]
00000000: 166d 6bbf c66e 103f a26d 93bf 665c 5cbf
00000010: 29b0 ac3f d0de a43e 3760 163f 1a17 083e
00000020: f3ab 5dbf ce21 ccbd 8f9d 10bf 022e ffbe
00000030: 5e8b 723f b34c aebe 3da5 83bf 7424 073f
00000040: 2201 bbbf 3819 503d e900 debd f145 07be
00000050: ae9c 4cbe 11c5 933d 3d44 7e3d 7ee9 a7bd
00000060: 28f9 1ebe f027 c03d 6428 893b 5d23 0bbe
00000070: cc7f 993e 08e1 993a f482 853d 2886 233d
00000080: ba9e a7bf 57c3 17bf c5c8 253f 0f31 4dbf
00000090: 083b 86be 240c 4fbf 58ad 62bd f940 17be
000000a0: 46e8 273f 2f68 d53e ab5e e13d 0eb7 333f
000000b0: 661a 88bf adba 69bb 2fa3 45bf 24f7 d8be
000000c0: 8869 d9bd 02e4 d23e 0cd0 62bf 0432 db3e
000000d0: d119 45be 8aa2 0d3f e78b f1bd 00d2 a23c
000000e0: bf47 75be cba9 08be 0e5b 893d 0ad6 24be
000000f0: 33c9 1bbe bf55 1bbe 10a3 13bc f113 9ebd
00000100: a721 07be 3e06 c9be e5c5 65be d848 49be
00000110: d0d0 5b3f e38e a4be 6259 813f 1192 1cbd
00000120: 2e92 04bf 3d91 d13d b44c b63e 6e8b 8ebf
00000130: 8dba 7dbf 4fbd 723e b004 8fbf 3796 18bf
00000140: 67dd bf3f 4042 813c 2a87 f2be bed2 053e
00000150: df4a 463f faac 58bf dfe7 e83e 1db2 053f
00000160: 847a 0ebf a6f6 c53f 6912 56bb 0bc3 883d
00000170: 4016 253e 9bdc 653d 5067 12bd bf44 ee3d
00000180: 7c3c c93c 58e9 50bd 107a bf3c 7b79 203b
00000190: 894d d4be b9ba e7be e359 c23e ddde 7a3d
000001a0: 894d 86be 8920 25bf a1f0 d5be 0ede c8be
000001b0: 15c8 bf3e 09cf d7bd 978e ae3f 3a69 923f
000001c0: f226 813e 20fb 183d 2871 e4be eccc 26bf
000001d0: 2f48 15bd 326a e73d fb0d 83bd 6939 12bf
000001e0: ab3d c53b 2dc7 183e 0431 16bf 98de df3b
000001f0: ef5b 823f 34d1 b63f 5f5a df3d 421b 0dbe
00000200: cb8d b73d e314 20be e5eb 203d 2227 5f3d
00000210: d7df 323c 2234 523c b057 ae3d ce3f e53d
00000220: 59d3 373f ff00 d43e e8de 18bf 7fb8 8ebd
00000230: 4295 bfbe 6237 353e 40a0 4c3f 5910 2fbe
00000240: 6f53 8cbe f107 2cbe 443a 04bf a246 d63e
00000250: 795e 273f 967d 0fbf 2d45 95bf 8c95 9ebf
00000260: 36f4 5fbf 67fc 23be ee00 62be 5a13 3dbf
00000270: b294 783f e4dd 0bbf 6f78 4cbf a229 f33e
00000280: 8e74 b8be 1a43 b5be c2f8 babd ed61 d2bc
00000290: 445e 31bd 8df6 433d 6f6f a03d 03da 55bd
000002a0: 4937 1cbe 2b0b dcbd 68c5 10be b0fa 81bc
000002b0: 8f9c 49bd 5f67 a5bc 4b05 48be 7303 9fbb
000002c0: 019c 58bf 0fec 75bf 8ad5 283f 0e88 93be
000002d0: ee9b 5e3f 08d5 9cbf 2fe2 983d cfa0 103e
000002e0: ce6b 13bf 816b d3be ce29 ba3c 9838 693f
000002f0: d80e 96be 2269 2a3e 2c21 b5be fc35 a83e
00000300: 2ecb 903e e840 efbd 74ac 89bf 4b41 1a3f
00000310: cf6e 3b3e 639b bdbf d749 733d 857f fc3c
00000320: c90e 2c3d 6b40 b6bd bf06 c73d e7f7 49bd
00000330: e395 fabd e0bd 42bd a0e2 fabd 81d6 903d
00000340: 393a 093e f5d0 a03e 8c62 09be 9bc0 9dbe
00000350: 3d19 c2bf 4b63 e6be e6ed c23f 4c4a dcbe
00000360: 2a43 90be fcb5 8d3f 0c14 b33d fe67 0cbf
00000370: 6717 303f c6fe 52bf b30b a63d c5c4 2bbe
00000380: 674e 0840 0544 483e 98b2 f3be 6fdb c5bd
00000390: 0ce0 593f aace 843f d89f 6abf a7fc 3e3e
000003a0: 7591 33bf f1c0 60bd 44e7 21be a139 f0bd
000003b0: a1c8 3a3c ab9c 31be d8fc 8dbc 33ad 2d3e
000003c0: 17b7 453d ab09 59be d50b f93c c025 17bd
000003d0: c570 7f3e fc14 4cbf 8965 9dbe 9359 c8bc
000003e0: f619 b6bf 8764 e3bd 9b70 10bf 5d7d 26bf
000003f0: 12c0 d43e 1466 89be 9ab1 863e e18e 033f
-0.91963327 0.56419027 -1.1517832 -0.8607849 1.349126 0.32201242 0.5874056 0.13290063
-0.865905 -0.09967385 -0.56490415 -0.4983979 0.9474391 -0.34042892 -1.0284802 0.5279
-1.4609721 0.0508053 -0.10840017 -0.13210274 -0.19981644 0.07215322 0.062076796 -0.08198832
-0.15524733 0.093826175 0.004185723 -0.13587709 0.29980314 0.0011740038 0.06519118 0.039922863
-1.3095315 -0.5928244 0.64759475 -0.8015298 -0.26216912 -0.808779 -0.055341095 -0.14770879
0.65588796 0.41681048 0.110043846 0.70201194 -1.0633056 -0.0035664246 -0.77202123 -0.42376053
-0.106158316 0.4118958 -0.88598704 0.42811596 -0.1924813 0.5532614 -0.117942624 0.019875526
-0.2395315 -0.13346021 0.067068204 -0.16097274 -0.1521347 -0.15169428 -0.009011045 -0.07718647
-0.13196431 -0.39262575 -0.22438772 -0.19656694 0.858655 -0.32140264 1.0105402 -0.038225237
-0.5178555 0.1023278 0.35605395 -1.11363 -0.9911278 0.23705028 -1.1173306 -0.5960421
1.4989442 0.01577866 -0.47368747 0.13068673 0.77457994 -0.8463894 0.45489404 0.52224904
-0.55655694 1.5465896 -0.0032664782 0.066778265 0.16121769 0.05611859 -0.035743058 0.11634206
0.024564974 -0.051003784 0.023373634 0.002448647 -0.41465405 -0.45259646 0.37959203 0.061247695
-0.2623103 -0.6450277 -0.41785148 -0.39231914 0.37457338 -0.10537536 1.3637265 1.1438363
0.25225025 0.037348866 -0.4461758 -0.65156436 -0.036445793 0.11299552 -0.06399151 -0.5711885
0.0060193143 0.1491973 -0.5866854 0.006831955 1.0184306 1.4282594 0.10905909 -0.1377993
0.08962592 -0.15632968 0.039287467 0.05448068 0.010917625 0.012829812 0.08512819 0.111938104
0.71806866 0.4140701 -0.5971513 -0.069687836 -0.37418562 0.17696908 0.7993202 -0.1709608
-0.27407405 -0.16799904 -0.51651406 0.41850764 0.6537853 -0.56051004 -1.1661736 -1.2389388
-0.8748201 -0.16014253 -0.22070667 -0.73857653 0.9710189 -0.54635453 -0.7987127 0.474927
-0.36026424 -0.35402757 -0.09129478 -0.02568146 -0.04330279 0.04784255 0.07833754 -0.052209865
-0.15255465 -0.107443176 -0.14137805 -0.015866607 -0.04922157 -0.020190893 -0.19533269 -0.004852706
-0.84613043 -0.9606332 0.65950835 -0.2881474 0.8695668 -1.2252512 0.07465016 0.14123844
-0.5758637 -0.41292956 0.022725012 0.9110198 -0.293082 0.16641667 -0.3537687 0.32853687
0.28280014 -0.11682302 -1.0755754 0.6025588 0.18303989 -1.4813045 0.05939659 0.030822525
0.042006288 -0.088990055 0.097180836 -0.049308684 -0.1223562 -0.04754436 -0.122502565 0.070721634
0.13401116 0.31409422 -0.13416499 -0.3081101 -1.5163952 -0.4499763 1.5228851 -0.43025434
-0.28176242 1.1071162 0.08744058 -0.5484618 0.6878571 -0.82420003 0.081077 -0.1677428
2.1297853 0.19557197 -0.47597194 -0.09660994 0.85107493 1.0375569 -0.9165015 0.18651067
-0.70143825 -0.054871503 -0.15810877 -0.11729742 0.011400373 -0.1734492 -0.01733248 0.16960602
0.04827031 -0.21195094 0.03040115 -0.036901236 0.24945362 -0.7971952 -0.30741528 -0.024456775
-1.4226673 -0.111031584 -0.5642182 -0.6503504 0.41552788 -0.26835692 0.26307374 0.5138989

lstm.weight_hh_l0 f4 [256, 64]
00000000: 1287 183e 3829 abbe 67c4 10bf 06f0 b73f
00000010: 83cc 45bd e893 423f 10b3 7ebe 3a14 b4be
00000020: 30a3 993e 63be 42bf 002c 6d3e fb69 24bd
00000030: feb8 7c3f 1683 473e 7683 3b3f 1059 683e
00000040: 9ed5 dc3e c54c cc3e 3275 c3be 9c1d e93e
00000050: e533 a13e c47d e6be 7f27 c3be 5f1e 423f
00000060: 321a a5be 238f 8dbf fcaf fd3d 7ad8 77bd
00000070: d34b b7bf b934 f1be 1ae4 ccbe d866 85be
00000080: 85bd a0be aa65 f5bc 7365 583f 56d9 573e
00000090: 5e7a 57bf 80bb 393f 9f59 82bd 77fc adbf
000000a0: 2655 bb3e 7507 333f 9120 22be 756d 4b3f
000000b0: ec4e 93bf 6374 67bf aa29 16bf 03d2 e8bf
000000c0: 865f 05be 33d2 6bbe 2b60 68be 4376 0cbd
000000d0: aca4 08bf e206 cb3d 6974 72bd 0c8c d7bf
000000e0: 62a4 d03e e3ae e43e c6ca 88bf f84a 383f
000000f0: 2d74 83bf 9b96 433f 596e 22bf 8c04 a1be
00000100: 3a29 67be be5d f5bb e847 02be b99d cabe
00000110: bf06 c0bf 04d2 12bf 66bd 80bf e60c 30bc
00000120: 3029 813f 7741 9ebd 861a 07bf 71b5 c2be
00000130: 3fd0 a3be 34b9 0f3e 32b1 21bf 52b1 a73d
00000140: 3507 02bf bbf8 e5bd b02a c7bf 4f2c e7be
00000150: 090b 443f 76b0 23bf ce4d 953e 549d 0b3f
00000160: 9b6a 3e3e 8209 b0be 033e 97be dbad 223f
00000170: 7366 a1bf 1e91 283f 7161 4d3e dafb 243d
00000180: 46a2 903e 8df8 823f 7f9c 553f 50e5 e4be
00000190: d662 21be 4c5c 8d3e cd53 7abf 3b11 5f3f
000001a0: 9980 013f 6f03 953f e514 483f 493a 283e
000001b0: 3068 dc3e 76fd 8f3f 2acb bfbe 1c6a 16bf
000001c0: 471d 573e 3a34 303e eef5 1abd 58b3 2f3f
000001d0: 741f 293e f2f2 72bf 0be7 0b3e 8f86 9f3e
000001e0: 529e cd3f f167 643e 9975 91ba 400c 5ebf
000001f0: 5209 073e 28e4 dfbe 978a 76bf b4ba 25be
00000200: 79bb e3be 11dc 803f 2774 ce3e ac2d febd
00000210: 21b9 153d 0946 5ebd 6974 55bf 29f9 923f
00000220: 5608 c6be 0253 e23e b1fb 733f 238e b53e
00000230: 7089 c03e a37a 0a3e a74d 88bf 8780 06bf
00000240: 0280 4dbe 34f5 a8be 2b96 aabf 4b57 143f
00000250: f13b 2dbe 2946 85bd 1000 0f3e ed71 edbe
00000260: 4eb7 aebe bff9 42bf f9ce a43e 2794 ab3f
00000270: e3e9 bebe 8d63 77bf 38cd 103e 0e7a 073e
00000280: 6652 abbe f70b 07be b253 413e e983 1fbc
00000290: 281b babf 6a5e ad3f 780e 46bf 9d12 443d
000002a0: 79f8 843f 3287 de3e 6440 dfbe ad39 cabe
000002b0: 47a4 a33e 569f 20bf eefd a7be f5ab bc3d
000002c0: 253e a83f b996 873f da74 c5be 1cc9 713f
000002d0: cf9a fbbd 228d 3cbf 2897 06bd 38b6 c03e
000002e0: 50fb 003f 42bb 8b3e bb90 0b3e 0bbe e03e
000002f0: 68b2 353e 101d d1be 0c93 92bf ea4b e9bd
00000300: 1bee 0bbf 132f e3bd cd2c 2e3d bae9 30be
00000310: c2de 3d3f 7536 24bf bd0f d0be 5e66 2f3e
00000320: 72a1 cd3d a3f8 233f 6e73 2bbe 6d40 c2be
00000330: 33a1 c43e ae31 663f 5472 a23e ffec 713e
00000340: 8435 02be 5661 0bbf 3ac9 d73e 1e93 1abf
00000350: c5ae 09bf 6f5f 1d3e d52c 8ebd 023a 1b3d
00000360: a106 debe 041b c4be a38f aa3d d89e 333e
00000370: 6d5e 823f 7858 353f 93f4 b1be 4e72 743f
00000380: 5c66 a8be 171c 593e 3b33 20bd 354d cabc
00000390: 77d4 1c3f 8f43 6a3e 0f24 39be 6d68 183f
000003a0: 5aff cbbe 49ae 82bf 432b 5ebf 05c4 513e
000003b0: 055b 2abf 3c19 1abf a2b6 99be bc16 133e
000003c0: fa4b b93e 846b 0bbe 26d6 d63f 515e 123f
000003d0: 3c61 853c 6cf8 a53e 3dab 123e ade1 dc3d
000003e0: 4038 d53e b70d abbd 3fc3 47be 8874 01bd
000003f0: b3ce 2bbe 593b ba3d 49f1 05bf 8043 a83e
0.14895275 -0.33429885 -0.56549686 1.4370124 -0.04829074 0.7600694 -0.24872994 -0.35171682
0.30007315 -0.7607176 0.23161316 -0.040140133 0.98719776 0.19483599 0.7324747 0.22690225
0.43131727 0.3990232 -0.3817535 0.45530403 0.31484905 -0.45017827 -0.3811607 0.7582759
-0.32246548 -1.1059307 0.12387082 -0.060509183 -1.4320015 -0.47110537 -0.40017778 -0.26055026
-0.31394592 -0.029955704 0.845298 0.21079001 -0.8417109 0.7255173 -0.0636475 -1.3592671
0.365884 0.69933254 -0.15832736 0.79463893 -1.150846 -0.9041197 -0.58657324 -1.818909
-0.1302472 -0.23029403 -0.22692935 -0.03429247 -0.5337627 0.09913422 -0.05919305 -1.6839614
0.40750414 0.44664678 -1.0686882 0.71989393 -1.0269829 0.7640168 -0.6344963 -0.31448781
-0.2257432 -0.0074879816 -0.12722743 -0.39573458 -1.5002059 -0.5735171 -1.00578 -0.010745263
1.0090694 -0.0772733 -0.52774847 -0.38029054 -0.31994817 0.14035493 -0.63161004 0.08188118
-0.5079225 -0.11229082 -1.5559902 -0.45150992 0.7657934 -0.63941133 0.29160923 0.5453694
0.18595354 -0.34382254 -0.295395 0.6354653 -1.260939 0.6584643 0.20056702 0.040279247
0.28248805 1.0232102 0.8344192 -0.44706202 -0.15760359 0.2760948 -0.9778412 0.87135667
0.5058685 1.1641673 0.7815688 0.16428484 0.4304824 1.1249225 -0.3745969 -0.5875566
0.21007262 0.17207423 -0.037832193 0.6863303 0.16515905 -0.94901955 0.13662355 0.31157348
1.606394 0.22305275 -0.0011097669 -0.8673744 0.13187149 -0.43728757 -0.9630522 -0.16184503
-0.44478968 1.0067159 0.40322992 -0.12411055 0.036553506 -0.05426601 -0.8338075 1.1482288
-0.38678235 0.44203955 0.95305926 0.35460004 0.37604856 0.13523345 -1.0648698 -0.5253987
-0.20068362 -0.32999575 -1.3327078 0.579457 -0.16917397 -0.065075226 0.13964868 -0.4637598
-0.34124225 -0.7616233 0.32189158 1.3404588 -0.37287816 -0.9663628 0.14140785 0.13230154
-0.33461303 -0.13188158 0.18879583 -0.00973604 -1.4539537 1.3544438 -0.7736583 0.047869314
1.0388328 0.4346252 -0.43603814 -0.39497128 0.3196127 -0.6274313 -0.3281092 0.09212486
1.3143965 1.0592872 -0.38565713 0.94447494 -0.12285387 -0.7365285 -0.032858998 0.37639022
0.5038347 0.27291304 0.13629429 0.4389499 0.17743838 -0.40842485 -1.1451125 -0.113914326
-0.54660195 -0.11092963 0.042523194 -0.1727666 0.74168026 -0.64145595 -0.40637007 0.17128894
0.10040559 0.64051265 -0.16743252 -0.37939778 0.38404235 0.89919555 0.3172785 0.23625563
-0.12715727 -0.544454 0.4214571 -0.60380733 -0.537823 0.15368436 -0.06942145 0.037897117
-0.43364432 -0.3830186 0.08328178 0.17541063 1.0185066 0.7083812 -0.34756908 0.95486915
-0.32890594 0.21202122 -0.039111357 -0.024695018 0.61261696 0.22877334 -0.18080162 0.5953434
-0.39843255 -1.0209438 -0.8678476 0.20484932 -0.66545135 -0.60194755 -0.3002215 0.14364141
0.36190778 -0.13615233 1.6784103 0.57175165 0.016281717 0.32416093 0.14323135 0.10785232
0.41644478 -0.08352225 -0.19508074 -0.031605273 -0.16778068 0.09093351 -0.52321297 0.32863998

lstm.bias_ih_l0 f4 [256]
00000000: 1b07 9fbe 1561 7a39 24b4 2dbf 8be3 10bc
00000010: 5524 2dbf 7d0c 27bf 9811 06bf 18eb d13d
00000020: 92cd 39bf 61cc 9bbe 40cb d4bf ee75 8e3e
00000030: 3891 4ebf d8aa e23e 7878 7d3e 6c87 593e
00000040: 3c1c da3e 7ee0 de3c 7410 023f 18ab 06bf
00000050: dc87 9c3e 00ed 093d 784c 89bf 87db 83be
00000060: b2e5 293f ccb3 3e3e 17d1 9a3e 512f 91be
00000070: 6ba4 f2be b99b 3bbf e339 a3bf 8090 ca3c
00000080: f43d e73e dd78 bb3d 908f af3d b602 32bf
00000090: 6c70 1abe c2b4 5dbf e9ba a3be 806a ccbe
000000a0: 354a 67bf b7fc 46be 5c2a 54bd 8cb0 a8be
000000b0: bb3a 11bd cfe3 a6be 4c5a c63e 38a4 f93c
000000c0: 14d0 c0be ed34 5d3e e7bd 733e 6284 4c3e
000000d0: b2e7 28bf 6efa d53d bed5 46be fe34 94be
000000e0: 87de 82be 7598 943e f910 00bf 2aa1 50be
000000f0: b14a 1bbf 684a 2e3a 2999 bcbf a216 07bf
00000100: 7f39 073f 7141 93be 2c5d c93e f18a 1fbe
00000110: 7aca 12bf 2b4e 243e f88e 0fbf 9fb8 30bf
00000120: 8ee2 32be 84d2 d03c a7fb 2a3f 353e a6be
00000130: bcfb 9cbe 1b7c 253e 48a9 26bf 068b 3b3e
00000140: 1c43 113e 9a75 b8be ecb3 9fbf 397e e8be
00000150: 3cf9 513f 84cf e13e b85f 23bf 9845 893d
00000160: d032 76be 2a0d 093f e329 cbbd f5e6 88be
00000170: 200c 83bf daea 1fbe c2d5 10bf cc23 de3c
00000180: 3ef1 d1be 9476 86be b496 08bf b34e 89be
00000190: e3d2 98bd 4f82 23bf 26d3 edbd 3551 12bf
000001a0: 275b a4be 6f70 45bf 50e8 5cbe 0aad 2abe
000001b0: c02b 03be 5b6c 12bf 8cc4 c9be b643 12be
000001c0: d4a0 03bf a4ea 67be 81f7 8dbe e484 7c3e
000001d0: 764d 89be 7774 e3b9 c709 f0be 817f 01bf
000001e0: 8193 0ebf c69d bcbe ce93 7dbe c367 b6be
000001f0: 13bb c2be 7ba7 743e 90a6 243f 1a38 e8be
00000200: 4eb2 963e 41c0 51bf 0a3a 4ebd 19c4 d6bd
00000210: 0fe1 e4bb bdd6 2e3f 0a4d 513d 9cb5 37be
00000220: 1ec6 843f 3b16 04bf feee b83e 0350 253d
00000230: 22a0 7ebe ec3e 5abf fc50 053e 3032 703d
00000240: 955b 023f a930 053d 2cbb 9f3d 9509 b8be
00000250: e649 fcbe de01 8fbc e030 b93e d607 b6be
00000260: f772 2d3f 2766 503f f6d5 bbbd b126 7bbe
00000270: 8aeb 873e 7d21 37bc 9060 8ebc cc28 b13c
00000280: 0ea9 f53e 3468 85bd a9e1 fbbe f425 263b
00000290: 07b8 693e 0d28 b8bd c989 9d3c 3c7a 7dbe
000002a0: 9714 8d3e 7394 623e 9954 aabe 8fbf 60bd
000002b0: d05e ec3e 60b4 893e 1921 4b3e fd88 633f
000002c0: c5ea 16bd 4780 fc3c 56c4 d9be 5e39 1abf
000002d0: 3397 6b3d d8f0 303e e447 20be 2eef acbe
000002e0: 9d71 8abd 3f4b 773d 791d a6be 1348 e7bd
000002f0: f972 d93e dca2 81be 48fd b23d f0d5 963e
00000300: 291e 023e b49d e1be e720 c6bd 43ec d9be
00000310: 62f8 5ebe 6b3b a73d c9d0 38be 3c3d 123e
00000320: 4e00 e0bd b1b1 81bf f530 ec3d badd 8a3e
00000330: f6bc 93be 7772 c73e 8dae d1bd d80f 14be
00000340: b1ab c73e f326 95be 531d 973e e4ec 01be
00000350: 2506 77bf d264 2dbe bddb d9be e90c fabc
00000360: b06a 923f c280 063f f41e 93be 1513 2dbe
00000370: 8454 22bf 9750 043e 54a2 86bf c25f 603f
00000380: de1d 263e 87da 0dbf 7cf8 81bd 1f9d 6bbf
00000390: 8966 8bbc 4e51 51bf 5731 f4be d0c5 1bbf
000003a0: 0464 93be 746f aebd d77c 5ebe 6f96 10bf
000003b0: 4e8a 74be 3798 19be f80b 303e c60e 87bd
000003c0: 76cc 7dbf 9710 b1bd 6d3a 09bf 6b45 1abf
000003d0: c34a 2dbf feb9 183f 8d98 0abf f9d9 b63e
000003e0: e91f a2be 848b 34bf a111 6b3e 8745 56bf
000003f0: e12f cfbd c669 f0be 4c2e 013f 8eb1 0bbf
-0.3106011 0.00023878024 -0.67853 -0.008843313 -0.67633563 -0.6525343 -0.52370596 0.10249919
-0.725793 -0.30429366 -1.6624527 0.27824348 -0.80690336 0.44270968 0.24752986 0.21243066
0.42599666 0.027206656 0.50806355 -0.5260482 0.30572402 0.033673286 -1.0726461 -0.25753424
0.6636611 0.18623275 0.30237648 -0.28356412 -0.47391066 -0.7328449 -1.2752041 0.024727106
0.45164454 0.09153912 0.08572304 -0.69535387 -0.15081948 -0.8660394 -0.3197854 -0.39925003
-0.90347606 -0.1943234 -0.05179821 -0.32947195 -0.0354564 -0.3259568 0.38740766 0.030473813
-0.3765875 0.21602221 0.23802911 0.19972375 -0.6597854 0.10448156 -0.19417474 -0.2894668
-0.255604 0.29022565 -0.500259 -0.20373979 -0.60660845 0.00066486606 -1.4734241 -0.5276891
0.5282211 -0.28760865 0.39328897 -0.15580346 -0.57340205 0.16045444 -0.5607753 -0.6903171
-0.17469236 0.025491007 0.6679024 -0.32469335 -0.30660808 0.16160624 -0.6510205 0.18314752
0.14185756 -0.36027223 -1.2476783 -0.454088 0.82020926 0.44103634 -0.6381793 0.06702727
-0.24042821 0.5353571 -0.09920099 -0.26738706 -1.0238075 -0.15616933 -0.5657617 0.027116679
-0.41004366 -0.26262343 -0.53354955 -0.26817855 -0.074620984 -0.6387071 -0.11612539 -0.5715516
-0.32100794 -0.77124685 -0.21572995 -0.16667572 -0.12809658 -0.5719659 -0.39407766 -0.14283642
-0.5141728 -0.22648102 -0.27727893 0.24660069 -0.2681691 -0.00043383587 -0.4688246 -0.5058518
-0.55693823 -0.36839122 -0.24763414 -0.3562604 -0.3803335 0.23892014 0.64316654 -0.45355302
0.2943291 -0.8193398 -0.05034832 -0.104866214 -0.006984837 0.68296415 0.05109886 -0.17940372
1.037296 -0.5159642 0.36119837 0.04035951 -0.24865773 -0.8525226 0.13019174 0.058641613
0.50920993 0.03251711 0.07799372 -0.3594481 -0.4927513 -0.017456945 0.361701 -0.35552853
0.6775355 0.8140587 -0.09171669 -0.24526478 0.2654689 -0.011177418 -0.017380029 0.021625899
0.4798054 -0.06514016 -0.49195603 0.0025352212 0.22824107 -0.08992014 0.01923074 -0.2475366
0.2755477 0.22126941 -0.33267668 -0.054870185 0.46166086 0.26895428 0.19836845 0.888809
-0.036844987 0.030822886 -0.42532605 -0.60243785 0.05751724 0.17279375 -0.15652424 -0.3377623
-0.06759951 0.060374495 -0.3244436 -0.11293044 0.4247053 -0.25319564 0.08739716 0.29460096
0.12706818 -0.4406563 -0.096742444 -0.42563066 -0.21774438 0.0816563 -0.18048395 0.14281172
-0.10937558 -1.0132352 0.11532775 0.2712229 -0.28855103 0.38954517 -0.10238371 -0.14459169
0.38998178 -0.29131278 0.2951456 -0.12688023 -0.9649375 -0.16932991 -0.4255046 -0.030523734
1.1438808 0.5254022 -0.28734553 -0.1690181 -0.6341021 0.12921368 -1.0518289 0.87646115
0.16222331 -0.5541157 -0.06346223 -0.9203662 -0.017016666 -0.81764686 -0.47693893 -0.6084871
-0.28787243 -0.08517352 -0.2172731 -0.56479543 -0.23880884 -0.14999472 0.17192066 -0.06594615
-0.9914011 -0.086457424 -0.53604776 -0.60262173 -0.676922 0.596588 -0.54139024 0.35713175
-0.3166497 -0.70525384 0.22955944 -0.8369984 -0.10116554 -0.469557 0.5046127 -0.545678

lstm.bias_hh_l0 f4 [256]
00000000: 6c05 82be 91fb 8c3d 0bf2 48bf df7e 9d3d
00000010: 7704 09bf 9db7 27bf a87e 0bbf f376 683e
00000020: ce45 53bf c94f cabe fa13 d0bf 396d 323e
00000030: a07d 4abf 5887 013f 474e 7b3e 561b ce3e
00000040: 8af3 993e 7eb9 813c 13ca eb3e d034 cbbe
00000050: 8d83 923e a0fe d3bc 9110 80bf 2634 68be
00000060: 9aed fb3e 7224 c73e 3e31 9f3e 80c0 a1be
00000070: 591d 83be 05c9 2dbf eb46 b3bf c013 1d3e
00000080: a064 bd3e b9bd c53d bf58 1c3e e19d 21bf
00000090: 581e 38bd 18ce 84bf d1f9 44be fb56 86be
000000a0: 3045 5fbf 747e 79be 27d3 c9bd 8d2e cebe
000000b0: dd78 803d ac43 98be 6444 bc3e eaad 0e3e
000000c0: 6c90 81be a491 a13e c587 443e f4ed a23e
000000d0: 8ea6 2ebf 3048 183c c7e3 c5bd 7df7 c2be
000000e0: 3c2a 6fbe cdac 883e 43b6 19bf 108d 5cbd
000000f0: 0682 01bf b340 90bc 1b08 cebf 4dd6 06bf
00000100: 3bad c63e b850 a9be 19c5 073f 507a c5be
00000110: abdb 06bf 39d7 5a3d 83eb 04bf 61dc 26bf
00000120: 7611 bebe 9139 6a3d 20a6 123f 8970 b4be
00000130: 83ae 06be cd9a 1f3e 11a0 56bf 7833 863e
00000140: e7c2 1c3e ab72 91be 5fbe 8bbf 3963 1fbf
00000150: 71eb 573f 2129 903e 4f80 19bf 2adc 0e3d
00000160: fe5a a9be 1009 363f afec f3bd f082 b7be
00000170: c083 85bf 6244 1e3d bc57 0fbf 65de 7f3e
00000180: 89dd bbbe 535f 79be 1782 0bbf 0375 0cbe
00000190: 8d93 4dbd d603 04bf 5acb 4abc 0165 09bf
000001a0: ad63 38be 9b38 37bf 870a 1abe cbcc c0bd
000001b0: fb23 093b a42a 23bf e0c2 f4be fa39 f5bd
000001c0: ff36 b6be e785 99be f90a 8fbe 6378 733e
000001d0: e614 09be ab64 2bbd 119c 99be a1b9 c5be
000001e0: 64ee 19bf 74db a9be eb76 86be 0032 babe
000001f0: d126 77be 8a7a 603e 89fc 023f c212 a8be
00000200: 8d92 773e 4ba9 48bf 1693 e2bc fa06 e3bd
00000210: 9daa 8d3d a9ab 673f 32d7 a2bd 44c5 69be
00000220: 8153 4f3f 0907 2bbf 9a5f b63e 1868 b73b
00000230: 7ce4 e6be 7eb6 64bf 1923 4f3e 75f0 893e
00000240: 59f6 303f 39f0 51bd 114d 09be e78c aabe
00000250: 3b6b f5be be2e b7bc cf40 993e f914 90be
00000260: 7fa8 143f 3968 4c3f 9857 49bb f7d6 e0be
00000270: 1f7a c53e 3427 8a3d 6c25 bc3d 3305 56bc
00000280: c999 023f 6373 0fbd e14a e8be afe4 dc3d
00000290: 96bf c03d 567a 723d 8d38 973d 15e9 49be
000002a0: c859 823e f2dd 9f3e eab7 5ebe fb1d 4dbe
000002b0: 573d a03e 7e41 7d3e ff05 933e 9835 6c3f
000002c0: cf7f 74be bc48 5f3d 4e3c dcbe b6c3 0abf
000002d0: 8ce9 03bd 1c76 e6bb 7e50 c8bd 3441 36be
000002e0: 7614 843d 0447 713d 9ec4 90be a152 12be
000002f0: a3be 7b3e 0c4c 77be 333d 513e 434d f63e
00000300: 2c51 953e e18f a0be a769 993d 3640 bebe
00000310: 3ab5 cebe 9c5e 813e 0bf5 28be 255f db3d
00000320: 899c 32be 0a9b 5ebf 3450 693e ab9f 423e
00000330: bec6 26be 4585 f63e 4c99 65b7 aef1 cd3c
00000340: de97 c23e 2a3c a7be c65c 593e f424 2abe
00000350: 764b 42bf c477 1abe a1a1 18bf 2c56 b83d
00000360: 31a5 6e3f 2ca8 113f 2cdc a8be 65ca 09be
00000370: e823 1abf a826 943e 3959 7bbf 5718 583f
00000380: 66d1 7a3e b2c1 fabe b8e7 6ebe 2edd 8bbf
00000390: d599 513d 5d31 3ebf ecd9 9dbe f0d0 35bf
000003a0: f5d4 bbbe 67c6 58be 552a 9bbe e388 ecbe
000003b0: a3f2 c8be 4e97 c43c 3217 1c3e 92b6 49be
000003c0: f9c3 67bf 6aec 4bbe 0de8 24bf 2512 12bf
000003d0: 9b30 3abf fcaa be3e 1f85 f3be de94 b33e
000003e0: 694c 7bbe 7806 1cbf bfb8 493e cfde 5dbf
000003f0: 22f8 aebd 0863 dabe 3eab a73e 6a0d 08bf
-0.25394762 0.0688392 -0.7849433 0.07690214 -0.5352244 -0.65514547 -0.5449014 0.22701626
-0.8252839 -0.39513996 -1.6256096 0.17424478 -0.7909794 0.50597143 0.24541579 0.4025523
0.30068618 0.01583552 0.46052608 -0.3968873 0.2861599 -0.02587825 -1.0005056 -0.22676143
0.49204713 0.38894993 0.31092256 -0.31592178 -0.25608328 -0.67884856 -1.4006017 0.15339565
0.36990833 0.09655327 0.15268229 -0.6313153 -0.044950813 -1.0375395 -0.19235922 -0.26238236
-0.87214947 -0.24364644 -0.09854727 -0.4026989 0.06273053 -0.2973913 0.36770928 0.1393353
-0.25305498 0.31556427 0.19192417 0.3182217 -0.6822289 0.009294555 -0.09662586 -0.38079444
-0.23355955 0.26694337 -0.60043734 -0.053845465 -0.50589025 -0.017608976 -1.6096224 -0.5267075
0.3880404 -0.33069396 0.5303512 -0.3856988 -0.52678937 0.05342791 -0.5192186 -0.6518002
-0.37122697 0.057183806 0.57284737 -0.35242108 -0.13152508 0.15586396 -0.8383799 0.26211143
0.15308724 -0.28407797 -1.0917472 -0.62260777 0.8434363 0.2815638 -0.5996141 0.034877934
-0.33077234 0.7110758 -0.11910378 -0.35842085 -1.0430832 0.038639434 -0.5599325 0.2498718
-0.36692455 -0.2435277 -0.54495376 -0.13716511 -0.050189544 -0.51568353 -0.012377584 -0.53669745
-0.18006773 -0.7157075 -0.15043078 -0.09414061 0.0020925987 -0.6373694 -0.47804928 -0.11973949
-0.35588834 -0.29984972 -0.2793806 0.23776393 -0.13386878 -0.04184405 -0.30001882 -0.38618186
-0.6012938 -0.33175242 -0.26262602 -0.36366272 -0.24135901 0.21921745 0.5116659 -0.3282681
0.24176998 -0.7838332 -0.027658027 -0.11085315 0.069173075 0.9049631 -0.079512015 -0.22829157
0.8098679 -0.6680761 0.35619813 0.0055971257 -0.45096195 -0.8934096 0.20228232 0.26941267
0.69125897 -0.051254485 -0.13408305 -0.33310625 -0.47933373 -0.022361156 0.29932258 -0.28141
0.58069605 0.7984653 -0.0030722376 -0.43914005 0.38569734 0.06745759 0.09186825 -0.013062763
0.5101591 -0.03502215 -0.45369628 0.107858054 0.09411542 0.0591987 0.07383833 -0.1971782
0.25459123 0.31224018 -0.21749845 -0.20030968 0.312968 0.24732015 0.28715512 0.9226928
-0.2387688 0.054512724 -0.4301476 -0.5420488 -0.03220515 -0.0070331227 -0.09780978 -0.1779831
0.06449215 0.058905616 -0.28275007 -0.14289333 0.24584441 -0.24150103 0.20433502 0.4810582
0.29163492 -0.3135977 0.07490855 -0.37158364 -0.4037264 0.25267494 -0.16499726 0.10711507
-0.17442526 -0.8695532 0.22784501 0.19006221 -0.16286752 0.48148552 -1.3685156e-05 0.025139656
0.3800649 -0.3266309 0.21226797 -0.16615659 -0.75896394 -0.1508475 -0.59621626 0.09000811
0.9322081 0.56897235 -0.32980478 -0.13456114 -0.6021104 0.28935742 -0.9818302 0.8441214
0.24493942 -0.48975903 -0.23330581 -1.0926874 0.051172096 -0.7429407 -0.30830324 -0.7102194
-0.3668591 -0.21169434 -0.30305734 -0.46198186 -0.39247617 0.023997929 0.15243223 -0.19698551
-0.90533406 -0.19914404 -0.6441658 -0.57058936 -0.72730416 0.37239826 -0.475625 0.35074514
-0.24540867 -0.6094737 0.19699381 -0.86668104 -0.08543421 -0.4265368 0.32747835 -0.5314547

lstm.weight_ih_l1 f4 [256, 64]
00000000: d0ae 9b3e ac78 91bf eb0e 823f 31d3 373e
00000010: dc0e a6bd 1ef8 2cbf 225b 3dbf 3f84 9ebe
00000020: 2d98 fd3d e237 be3e d0b7 1b3f 758a 2b3f
00000030: ab1b 75bf a76c bfbe 7d6a 59bf 95d4 cc3e
00000040: d7cd 46be 03c2 e03d 87ac b73e 3c34 d8bb
00000050: f587 c53e edb5 0dbf 51bd 62bf 9524 b0bc
00000060: 1dfb 07bf b371 03bf c45f 80be b703 3e3f
00000070: 395a 813f 9ea9 073e 4519 5dbf 4442 88bd
00000080: 6a67 e4bf cc2e 163f 6a5d 8fbd fce9 7abf
00000090: 111d 21bf 4332 0cbf 97bf b8be 01b1 e93e
000000a0: 8cad 783f 9e5e 6d3f 56c5 6bbe b535 9c3e
000000b0: 9395 0abe 4edd ebbe 8208 2c3f 957e 9ebf
000000c0: 1c58 a83e ec9e e63e 22cf 8ebe 98a6 7bbd
000000d0: 3b5d 8dbe 2dab 27bf fcd4 403f 4e1a a1bf
000000e0: 3c82 913e a240 d33e 1f78 2d3f 4fe2 ffbd
000000f0: 2be4 1dbf 6c8e 213f 2ce2 bcbf 14ad 73be
00000100: bf2a 6b3f 3ab4 86bf 0520 9d3d fdef 00bf
00000110: e18f b7be 8ee4 c93d ad2d 1abf 72a1 903e
00000120: fdfc 9a3e 195f debd ebaa 11bf 10fe 703f
00000130: 366f 84bf 221b bb3e 6e0d 0f3e 298c 3abf
00000140: f7c1 b6be 1bd8 0c3f 936c 8a3f c2d0 37bf
00000150: a304 38be 8a0f 7f3e 6e6b 073f f44d ddbe
00000160: b7a1 a3be b61d ee3e a630 7b3e 0b1f a83f
00000170: 124f e43e 4493 153f 31b0 5b3f a700 9ebe
00000180: 3d8a 3c3e a916 573f 5d49 4ebf 3545 42bf
00000190: 709e 08bf 0846 acbe d696 17bf 0906 663f
000001a0: 0c6c 83be b6f6 d5be 9d2d fabe 37fe cf3e
000001b0: 8ded a83d 5710 66bf 0649 31bf 2c0d babe
000001c0: f2f7 e9be f675 c13e 96ae 1c3f 9c9e 673f
000001d0: 4dbf 403f b1ca 2abf a338 b8be 7aff 9abe
000001e0: c303 8b3e 1a54 bfbd d89e a23e 6171 7fbe
000001f0: 757f 13bf 94ef 123f 2540 663f d46b bf3e
00000200: 6eeb a53e bcc0 dabe e88b 3d3f c34b 763f
00000210: 382f 24bf 15ba 02be 7c95 393f f286 0a3f
00000220: 7d1f 943d 2702 f13e ec49 39bf 75db 943e
00000230: b5aa 64bf 0f3c ff3e 2271 743f 883f 823f
00000240: edc8 acbf cf46 5e3e 7d0b 21be 0ba0 f53e
00000250: 6333 db3e 3ea2 80be 8ba9 0fbf 95e1 2d3f
00000260: a4db 593e da3d 023e bd3f 053f 4cc4 713f
00000270: e70e e23d b1e1 73bf d0b6 bfbe 2670 75bd
00000280: 9dc2 06bf 4fef 80be dce5 883f e85e 443e
00000290: 0545 9ebf 6364 bf3d 4120 bebf 96bc ecbe
000002a0: b1b2 cd3f c1fc 863f 675e b63e b3b7 dcbd
000002b0: 3611 adbe c1d2 babd 86ee 3f3f a0d3 b13e
000002c0: 08d9 12bd 6882 293f b737 0cbf 699c 8d3e
000002d0: 6cef 86be 913b 21bf 5afd bfbe 9ff7 2d3f
000002e0: e83e 1bbe d8ff b33e 5aa3 8a3e 7519 8bbf
000002f0: fcf9 f9be 230b b1be 7069 bd3e b6af f23e
00000300: 678f 2cbf d45e 003e 4699 0a3f 7e1f 013f
00000310: 4042 2fbd 1322 21bf 8894 2abf 8b54 b0be
00000320: d797 e73b 16d6 783f 4945 fbbe 6277 e9be
00000330: de92 1f3f f8aa 0bbf 2a0b d23d 57c9 efbe
00000340: 6524 043f b792 c63e 043e 103e 2dbf 103e
00000350: f0b6 9abf d703 70bf 8b27 8dbe b8f0 45bf
00000360: 039b 023f 8bf2 8abf e6ce 5cbe 220a dfbe
00000370: 815d 6cbe 8c11 91be 5108 36bf 4dd3 c63d
00000380: 7a95 21be 65ac 553f dd7e 333f ff26 90be
00000390: 727c 81bf 934c 31bf 1ec2 c33e 609d eabd
000003a0: d9bc f0be 3011 9dbf 8a4d 67bf 4eec 2ebf
000003b0: 3efb e0bc 1adc 9dbf 65b4 80be 9e3e 953f
000003c0: 66c8 023e e52d 43bf a0c7 2040 3102 853f
000003d0: 7428 eb3e b8bd 383f 7391 d3be 09d2 bebe
000003e0: 751b 8dbe 69ba 63bf 18ff 11bf dd04 25be
000003f0: 2dfa 113e ba0a 23bf ef05 813f 3784 f73e
0.3040681 -1.1364951 1.0160803 0.17951657 -0.08108303 -0.67566097 -0.7396718 -0.3096027
0.12382541 0.3715201 0.6082735 0.67008144 -0.9574534 -0.37387583 -0.84928113 0.40005937
-0.19414459 0.10974505 0.35873815 -0.0065980237 0.3858029 -0.5535572 -0.88570124 -0.021501819
-0.53117543 -0.51345366 -0.25073063 0.7422442 1.0105659 0.13248298 -0.86366683 -0.06653264
-1.784406 0.58665156 -0.07000239 -0.9801328 -0.62934977 -0.54764193 -0.3608367 0.45642856
0.9713981 0.927225 -0.23024496 0.30509725 -0.1353362 -0.4606728 0.6720048 -1.238238
0.32879722 0.45043123 -0.27892405 -0.061438173 -0.27610192 -0.6549557 0.7532499 -1.2586153
0.28419673 0.41260248 0.67761415 -0.12494337 -0.6167628 0.63107944 -1.4756522 -0.23796493
0.918621 -1.0523751 0.07672123 -0.50366193 -0.35851958 0.098580465 -0.60225946 0.28248173
0.3027114 -0.10857982 -0.56901425 0.9413767 -1.0346439 0.36544138 0.13969967 -0.7287012
-0.35694858 0.5501725 1.0814384 -0.71802914 -0.17970519 0.24908271 0.528983 -0.43223536
-0.31959316 0.46507043 0.24530277 1.3134474 0.44591576 0.58427835 0.8581572 -0.30859873
0.18412109 0.8401895 -0.80580693 -0.7588685 -0.53366756 -0.3364718 -0.5921453 0.8985296
-0.2566837 -0.41789788 -0.48862925 0.40623638 0.08248434 -0.8986868 -0.6925205 -0.36338174
-0.4569698 0.3778531 0.61203897 0.90476394 0.752919 -0.6671553 -0.3598071 -0.30273038
0.27151307 -0.09342213 0.31761813 -0.24945594 -0.5761636 0.5739682 0.89941627 0.37386954
0.3240618 -0.4272517 0.74041605 0.96209353 -0.6413455 -0.12766297 0.7249372 0.5411216
0.072325684 0.47071955 -0.7237842 0.29073682 -0.8932298 0.4985051 0.95485127 1.0175638
-1.3498818 0.21706699 -0.15727039 0.47973666 0.42812642 -0.2512378 -0.5611808 0.67922336
0.21275192 0.12718907 0.5205038 0.9444015 0.11037999 -0.9526625 -0.37444162 -0.059921406
-0.52640706 -0.25182578 1.0695148 0.19176829 -1.2364813 0.09345319 -1.4853593 -0.4623763
1.6070157 1.0545884 0.35618898 -0.10777225 -0.33802193 -0.09122229 0.7497333 0.3473177
-0.03585151 0.6621461 -0.54772514 0.27658394 -0.2635454 -0.62981516 -0.3749798 0.67955965
-0.15160716 0.3515613 0.27077752 -1.0867144 -0.48823535 -0.3457881 0.36994505 0.47399682
-0.67406315 0.12536174 0.54140127 0.5043868 -0.04278779 -0.6294262 -0.6663289 -0.344395
0.0070676613 0.9720167 -0.49076298 -0.45598894 0.62333477 -0.5455775 0.102560356 -0.46833298
0.51618034 0.3878381 0.14086157 0.14135428 -1.2087078 -0.9375586 -0.2756923 -0.7732043
0.5101778 -1.0855268 -0.215633 -0.43562418 -0.23082544 -0.283337 -0.7110644 0.09708271
-0.15779677 0.8346618 0.70115453 -0.28154752 -1.0116103 -0.6925747 0.38234037 -0.11455798
-0.4701908 -1.227087 -0.9035269 -0.6832932 -0.027463552 -1.2332795 -0.2513763 1.1659734
0.12771758 -0.76241904 2.5121841 1.0391294 0.459293 0.7216449 -0.41321906 -0.3726962
-0.2756001 -0.88956314 -0.5702987 -0.16115136 0.1425559 -0.6368824 1.0079936 0.4834306

lstm.weight_hh_l1 f4 [256, 64]
00000000: c7c9 873f 214d 2dbf cf36 c1be 526a 82bf
00000010: 198d a9bf e87e 9ebe 3f29 9abe 6562 cf3f
00000020: f71f e33e bff0 47bf 4730 943f 4b01 4ebe
00000030: 0dfe b5bf 63bf 25be 18cc 413f 8a37 28bf
00000040: 46fd 993e 3f66 5bbe 227d f63e f788 ec3e
00000050: 85e0 3ebe 33bc 7c3f 4367 23bf 332f 333f
00000060: 68c3 4cbd c6c9 cebe 59f0 37bf bf90 473e
00000070: 9ce8 3b3f e2cb 2dbe 86fe 9e3d d9eb aa3e
00000080: 1bb7 c9bd e9ec debe a572 d83e f1a1 543f
00000090: 173e 2c3e 9ab7 303f ad5f e63c a373 c0be
000000a0: ea41 2ebf d477 f03d f2fe 773f 876e 8c3e
000000b0: 66d0 3dbf 076b eebd 0411 0e3f 8a57 65bf
000000c0: 29b1 a23e e55e 723f d3bc d4bd 1dc5 26bf
000000d0: 7960 353f 7d95 52bf 699c 8f3e 5601 d73d
000000e0: 79a9 023f d0c0 59bf abb5 913f f884 2dbd
000000f0: d79b 56be a6d7 08bf 0c01 003f 06df c83e
00000100: 05e1 b5bf 680b 98be c957 9f3d ace8 83be
00000110: 93cf 1cbe 18a9 7c3f 50d7 80bf e263 b5be
00000120: 397a 233f fb2a 59bf e7e6 743f 94ea 283e
00000130: 1cb2 41be c6ad a0bf 6c19 c1be fea6 933e
00000140: fe23 61bf f322 293f 54e4 583d f14d 453f
00000150: cb96 e8be 571e a2bd e0f7 8f3e 02e1 083f
00000160: 2239 cabe 206e b9be 2e1c 85be 34f5 28bf
00000170: 546d 48be 2ac2 3cbf b53e 93bf 3a08 4bbf
00000180: 478c 02be e1f3 a03e 9460 c83e 948f 5b3e
00000190: 33de 713e d9db c4be ffca b3be fea7 24bf
000001a0: 1ea1 25bf 4f68 a8be 5ae3 41bf 7c92 5abf
000001b0: 708b 8f3d bd48 6a3e 5023 d43e b9fb 3abd
000001c0: 3b3e 70be 9c9f 5abe 5454 11be e25b 22bf
000001d0: bd2f 19bf f50d 2fbf 286b 63be e438 493e
000001e0: 1fa7 ce3d 6dbc a33d a5b4 f33f 853d 143e
000001f0: 7673 b53e 6247 9cbe 2394 69be 2130 65bf
00000200: aef1 91be 6cc1 3a3f 34f6 823f aac5 5fbf
00000210: 6e32 ca3e 6be5 8a3d 6c66 943f 4b9b 26be
00000220: f432 22be 7e2f e33e faaa 6a3f a645 643d
00000230: 82ec 21bf 1e0b 81bf 6b33 8fbd 14c9 3dbf
00000240: 450d c4be 56c4 493e 19d2 95bd 8bff e13e
00000250: b819 79be dfcc bebf 501a 2bbf a0ed ecbe
00000260: 7c00 103e 1673 ba3d 482d aabe cf52 7c3f
00000270: 512c 813f 8969 edbe 6223 7cbf 2d0c 16bf
00000280: 1bf4 26bf 6d55 0dbd 6a99 4e3f 0996 e2bc
00000290: e320 07be c271 f3be 60cb 83be f736 833f
000002a0: 0004 ccbe 837c c5be 1c40 30bf 3091 563f
000002b0: 05f1 543c dfed 0dbe 443c 42bd 881f 1abe
000002c0: d2b4 94bf 3ed7 87bd 962a bdbf 7fac 1f3f
000002d0: 60a2 0d3f c3c1 7f3e 8240 88be 58cb 9fbf
000002e0: 9e49 bc3e 7bda 5abc ba60 b6bf c4b6 dcbe
000002f0: 74e1 a73d 8733 b23d 9b34 c03e b369 bfbd
00000300: ad73 80be ccf3 0a3f 3227 e2be e9a4 893e
00000310: d6b7 cb3e 989e bbbd f8b8 1bbd f283 583f
00000320: af46 53bf 5c51 8a3e 4ac0 503c 002e 4fbf
00000330: 2e84 ef3e a66a ecbe 9e08 21bf 0fd7 a53c
00000340: 49ca e13d 69c7 f53e faec 19be 9561 1fbf
00000350: 831a 1abb e4d7 663d cf34 c7bd d77b 1d3f
00000360: 4c64 153e 0b36 953f 6354 9f3e 9ab9 c4be
00000370: aee5 d9be 2d3b 06bd a1ee 44be 239c 0b3f
00000380: 5550 ae3d 4e4a 733d 7c61 993f 11be c6bd
00000390: 6f9e 243c 27d2 64bf b2b8 3c3f ff93 c53e
000003a0: 0c39 aa3e 8de0 013f 5d07 313f 314f 033e
000003b0: b87a 323f 34ea a2be 3af5 f4be ecc2 21bf
000003c0: e064 74bc 624d bf3e 0ceb 25be 6af9 dbbe
000003d0: d31d 0f3f 37b6 023f 2264 71bf 8af4 233f
000003e0: c7f6 9dbe a54c ca3e a081 163f 2801 c3be
000003f0: 5238 033f 82f2 c13e 26e5 ebbe d706 913e
1.0608453 -0.67695814 -0.37737128 -1.0188696 -1.3246185 -0.30956197 -0.30109593 1.6201903
0.44360325 -0.78101724 1.1577233 -0.2011768 -1.4218155 -0.1618629 0.7570205 -0.65709746
0.30076045 -0.21425723 0.48142344 0.46198246 -0.18640335 0.9872467 -0.6382944 0.69993895
-0.04999104 -0.40388316 -0.71851116 0.1948881 0.7340181 -0.16972306 0.0776339 0.33383062
-0.09849378 -0.43540123 0.42274967 0.830596 0.1682056 0.69030154 0.028121794 -0.37588224
-0.68069327 0.117416054 0.9687339 0.27428076 -0.74146116 -0.116415076 0.55494714 -0.895867
0.31775787 0.9467605 -0.10387578 -0.6514452 0.7085033 -0.8225935 0.2804902 0.10498302
0.51039845 -0.85059834 1.1383566 -0.042363137 -0.20957886 -0.53454053 0.500016 0.39232653
-1.4209296 -0.29696202 0.077804156 -0.25763452 -0.15313558 0.98695517 -1.0065708 -0.35427767
0.6385837 -0.8483121 0.9566483 0.16495734 -0.189156 -1.2553031 -0.37714708 0.28838342
-0.87945545 0.66068953 0.052952126 0.77072054 -0.45427546 -0.07915943 0.281188 0.53468335
-0.39496714 -0.3621683 -0.25998062 -0.6599915 -0.19572955 -0.7373377 -1.1503512 -0.7930943
-0.12748824 0.31436065 0.39136183 0.2144149 0.23619919 -0.3844898 -0.3511581 -0.64318836
-0.6469897 -0.3289208 -0.75737536 -0.8537977 0.070090175 0.2287931 0.4143319 -0.045650218
-0.23461239 -0.21349949 -0.14192325 -0.6342145 -0.5983847 -0.6838067 -0.22208846 0.19650608
0.100904696 0.07994924 1.9039503 0.14476593 0.35439652 -0.3052321 -0.22810416 -0.89526564
-0.285047 0.7295139 1.0231385 -0.87410986 0.394916 0.06782039 1.1593757 -0.16270177
-0.1583975 0.4437217 0.9166714 0.055730484 -0.6325151 -1.0081518 -0.06992229 -0.74134946
-0.38291374 0.19703802 -0.073154636 0.44140276 -0.24326217 -1.4906272 -0.66837025 -0.46275043
0.14062685 0.09103982 -0.33237672 0.98563856 1.0091649 -0.4636958 -0.9849149 -0.5861233
-0.65216225 -0.034505296 0.8070284 -0.027659433 -0.13196139 -0.47547728 -0.257411 1.0251149
-0.39846802 -0.38571557 -0.68847823 0.8381529 0.012996917 -0.13860272 -0.047420755 -0.1505109
-1.1617682 -0.06632851 -1.4778621 0.62372583 0.5532589 0.24976258 -0.26611716 -1.248393
0.36774915 -0.013357754 -1.4248269 -0.4310819 0.08197299 0.08701234 0.37540135 -0.093463324
-0.25088254 0.54278255 -0.4417053 0.2688363 0.39788693 -0.09161109 -0.038018197 0.8457633
-0.8252973 0.27015197 0.012741158 -0.80929565 0.46780533 -0.46175116 -0.62903774 0.02024415
0.11024911 0.480037 -0.15031806 -0.62258273 -0.0023514337 0.056358233 -0.09726869 0.6151709
0.14589041 1.1657118 0.3111907 -0.38422853 -0.42558044 -0.03277128 -0.19231655 0.5453512
0.08511416 0.059397034 1.1982875 -0.09704221 0.010047539 -0.8938317 0.7371932 0.38589475
0.33246648 0.5073326 0.6915186 0.12823178 0.69718504 -0.31819308 -0.47843343 -0.6318805
-0.014916629 0.37363726 -0.16202945 -0.42963725 0.55904883 0.5105929 -0.94293416 0.6404501
-0.3085234 0.395116 0.5879154 -0.3808682 0.5125781 0.3788033 -0.46073264 0.2832553
